{"format": "graph-model", "generatedBy": "2.8.0", "convertedBy": "TensorFlow.js Converter v3.12.0", "signature": {"inputs": {"input_1": {"name": "input_1:0", "dtype": "DT_FLOAT", "tensorShape": {"dim": [{"size": "-1"}, {"size": "300"}, {"size": "300"}, {"size": "3"}]}}}, "outputs": {"dense": {"name": "Identity:0", "dtype": "DT_FLOAT", "tensorShape": {"dim": [{"size": "-1"}, {"size": "400"}]}}}}, "modelTopology": {"node": [{"name": "StatefulPartitionedCall/model/model013/efficientnetv2-b3/block6l_se_squeeze/Mean/reduction_indices", "op": "Const", "attr": {"dtype": {"type": "DT_INT32"}, "value": {"tensor": {"dtype": "DT_INT32", "tensorShape": {"dim": [{"size": "2"}]}}}}}, {"name": "StatefulPartitionedCall/model/model013/efficientnetv2-b3/block6l_se_reshape/strided_slice/stack", "op": "Const", "attr": {"dtype": {"type": "DT_INT32"}, "value": {"tensor": {"dtype": "DT_INT32", "tensorShape": {"dim": [{"size": "1"}]}}}}}, {"name": "StatefulPartitionedCall/model/model013/efficientnetv2-b3/block6l_se_reshape/strided_slice/stack_1", "op": "Const", "attr": {"dtype": {"type": "DT_INT32"}, "value": {"tensor": {"dtype": "DT_INT32", "tensorShape": {"dim": [{"size": "1"}]}}}}}, {"name": "StatefulPartitionedCall/model/model013/efficientnetv2-b3/block6l_se_reshape/strided_slice/stack_2", "op": "Const", "attr": {"dtype": {"type": "DT_INT32"}, "value": {"tensor": {"dtype": "DT_INT32", "tensorShape": {"dim": [{"size": "1"}]}}}}}, {"name": "StatefulPartitionedCall/model/model013/efficientnetv2-b3/block6l_se_reshape/Reshape/shape/1", "op": "Const", "attr": {"dtype": {"type": "DT_INT32"}, "value": {"tensor": {"dtype": "DT_INT32", "tensorShape": {}}}}}, {"name": "StatefulPartitionedCall/model/model013/efficientnetv2-b3/block6l_se_reshape/Reshape/shape/2", "op": "Const", "attr": {"dtype": {"type": "DT_INT32"}, "value": {"tensor": {"dtype": "DT_INT32", "tensorShape": {}}}}}, {"name": "StatefulPartitionedCall/model/model013/efficientnetv2-b3/block6l_se_reshape/Reshape/shape/3", "op": "Const", "attr": {"value": {"tensor": {"dtype": "DT_INT32", "tensorShape": {}}}, "dtype": {"type": "DT_INT32"}}}, {"name": "StatefulPartitionedCall/model/model013/efficientnetv2-b3/block6l_se_reduce/Conv2D/ReadVariableOp", "op": "Const", "attr": {"dtype": {"type": "DT_FLOAT"}, "value": {"tensor": {"dtype": "DT_FLOAT", "tensorShape": {"dim": [{"size": "1"}, {"size": "1"}, {"size": "1392"}, {"size": "58"}]}}}}}, {"name": "StatefulPartitionedCall/model/model013/efficientnetv2-b3/block6l_se_reduce/BiasAdd/ReadVariableOp", "op": "Const", "attr": {"value": {"tensor": {"dtype": "DT_FLOAT", "tensorShape": {"dim": [{"size": "58"}]}}}, "dtype": {"type": "DT_FLOAT"}}}, {"name": "StatefulPartitionedCall/model/model013/efficientnetv2-b3/block6l_se_expand/Conv2D/ReadVariableOp", "op": "Const", "attr": {"dtype": {"type": "DT_FLOAT"}, "value": {"tensor": {"dtype": "DT_FLOAT", "tensorShape": {"dim": [{"size": "1"}, {"size": "1"}, {"size": "58"}, {"size": "1392"}]}}}}}, {"name": "StatefulPartitionedCall/model/model013/efficientnetv2-b3/block6l_se_expand/BiasAdd/ReadVariableOp", "op": "Const", "attr": {"dtype": {"type": "DT_FLOAT"}, "value": {"tensor": {"dtype": "DT_FLOAT", "tensorShape": {"dim": [{"size": "1392"}]}}}}}, {"name": "StatefulPartitionedCall/model/model013/efficientnetv2-b3/block6k_se_squeeze/Mean/reduction_indices", "op": "Const", "attr": {"value": {"tensor": {"dtype": "DT_INT32", "tensorShape": {"dim": [{"size": "2"}]}}}, "dtype": {"type": "DT_INT32"}}}, {"name": "StatefulPartitionedCall/model/model013/efficientnetv2-b3/block6k_se_reshape/strided_slice/stack", "op": "Const", "attr": {"value": {"tensor": {"dtype": "DT_INT32", "tensorShape": {"dim": [{"size": "1"}]}}}, "dtype": {"type": "DT_INT32"}}}, {"name": "StatefulPartitionedCall/model/model013/efficientnetv2-b3/block6k_se_reshape/strided_slice/stack_1", "op": "Const", "attr": {"value": {"tensor": {"dtype": "DT_INT32", "tensorShape": {"dim": [{"size": "1"}]}}}, "dtype": {"type": "DT_INT32"}}}, {"name": "StatefulPartitionedCall/model/model013/efficientnetv2-b3/block6k_se_reshape/strided_slice/stack_2", "op": "Const", "attr": {"value": {"tensor": {"dtype": "DT_INT32", "tensorShape": {"dim": [{"size": "1"}]}}}, "dtype": {"type": "DT_INT32"}}}, {"name": "StatefulPartitionedCall/model/model013/efficientnetv2-b3/block6k_se_reshape/Reshape/shape/1", "op": "Const", "attr": {"value": {"tensor": {"dtype": "DT_INT32", "tensorShape": {}}}, "dtype": {"type": "DT_INT32"}}}, {"name": "StatefulPartitionedCall/model/model013/efficientnetv2-b3/block6k_se_reshape/Reshape/shape/2", "op": "Const", "attr": {"value": {"tensor": {"dtype": "DT_INT32", "tensorShape": {}}}, "dtype": {"type": "DT_INT32"}}}, {"name": "StatefulPartitionedCall/model/model013/efficientnetv2-b3/block6k_se_reshape/Reshape/shape/3", "op": "Const", "attr": {"dtype": {"type": "DT_INT32"}, "value": {"tensor": {"dtype": "DT_INT32", "tensorShape": {}}}}}, {"name": "StatefulPartitionedCall/model/model013/efficientnetv2-b3/block6k_se_reduce/Conv2D/ReadVariableOp", "op": "Const", "attr": {"value": {"tensor": {"dtype": "DT_FLOAT", "tensorShape": {"dim": [{"size": "1"}, {"size": "1"}, {"size": "1392"}, {"size": "58"}]}}}, "dtype": {"type": "DT_FLOAT"}}}, {"name": "StatefulPartitionedCall/model/model013/efficientnetv2-b3/block6k_se_reduce/BiasAdd/ReadVariableOp", "op": "Const", "attr": {"dtype": {"type": "DT_FLOAT"}, "value": {"tensor": {"dtype": "DT_FLOAT", "tensorShape": {"dim": [{"size": "58"}]}}}}}, {"name": "StatefulPartitionedCall/model/model013/efficientnetv2-b3/block6k_se_expand/Conv2D/ReadVariableOp", "op": "Const", "attr": {"value": {"tensor": {"dtype": "DT_FLOAT", "tensorShape": {"dim": [{"size": "1"}, {"size": "1"}, {"size": "58"}, {"size": "1392"}]}}}, "dtype": {"type": "DT_FLOAT"}}}, {"name": "StatefulPartitionedCall/model/model013/efficientnetv2-b3/block6k_se_expand/BiasAdd/ReadVariableOp", "op": "Const", "attr": {"value": {"tensor": {"dtype": "DT_FLOAT", "tensorShape": {"dim": [{"size": "1392"}]}}}, "dtype": {"type": "DT_FLOAT"}}}, {"name": "StatefulPartitionedCall/model/model013/efficientnetv2-b3/block6j_se_squeeze/Mean/reduction_indices", "op": "Const", "attr": {"value": {"tensor": {"dtype": "DT_INT32", "tensorShape": {"dim": [{"size": "2"}]}}}, "dtype": {"type": "DT_INT32"}}}, {"name": "StatefulPartitionedCall/model/model013/efficientnetv2-b3/block6j_se_reshape/strided_slice/stack", "op": "Const", "attr": {"value": {"tensor": {"dtype": "DT_INT32", "tensorShape": {"dim": [{"size": "1"}]}}}, "dtype": {"type": "DT_INT32"}}}, {"name": "StatefulPartitionedCall/model/model013/efficientnetv2-b3/block6j_se_reshape/strided_slice/stack_1", "op": "Const", "attr": {"value": {"tensor": {"dtype": "DT_INT32", "tensorShape": {"dim": [{"size": "1"}]}}}, "dtype": {"type": "DT_INT32"}}}, {"name": "StatefulPartitionedCall/model/model013/efficientnetv2-b3/block6j_se_reshape/strided_slice/stack_2", "op": "Const", "attr": {"value": {"tensor": {"dtype": "DT_INT32", "tensorShape": {"dim": [{"size": "1"}]}}}, "dtype": {"type": "DT_INT32"}}}, {"name": "StatefulPartitionedCall/model/model013/efficientnetv2-b3/block6j_se_reshape/Reshape/shape/1", "op": "Const", "attr": {"dtype": {"type": "DT_INT32"}, "value": {"tensor": {"dtype": "DT_INT32", "tensorShape": {}}}}}, {"name": "StatefulPartitionedCall/model/model013/efficientnetv2-b3/block6j_se_reshape/Reshape/shape/2", "op": "Const", "attr": {"value": {"tensor": {"dtype": "DT_INT32", "tensorShape": {}}}, "dtype": {"type": "DT_INT32"}}}, {"name": "StatefulPartitionedCall/model/model013/efficientnetv2-b3/block6j_se_reshape/Reshape/shape/3", "op": "Const", "attr": {"value": {"tensor": {"dtype": "DT_INT32", "tensorShape": {}}}, "dtype": {"type": "DT_INT32"}}}, {"name": "StatefulPartitionedCall/model/model013/efficientnetv2-b3/block6j_se_reduce/Conv2D/ReadVariableOp", "op": "Const", "attr": {"dtype": {"type": "DT_FLOAT"}, "value": {"tensor": {"dtype": "DT_FLOAT", "tensorShape": {"dim": [{"size": "1"}, {"size": "1"}, {"size": "1392"}, {"size": "58"}]}}}}}, {"name": "StatefulPartitionedCall/model/model013/efficientnetv2-b3/block6j_se_reduce/BiasAdd/ReadVariableOp", "op": "Const", "attr": {"dtype": {"type": "DT_FLOAT"}, "value": {"tensor": {"dtype": "DT_FLOAT", "tensorShape": {"dim": [{"size": "58"}]}}}}}, {"name": "StatefulPartitionedCall/model/model013/efficientnetv2-b3/block6j_se_expand/Conv2D/ReadVariableOp", "op": "Const", "attr": {"value": {"tensor": {"dtype": "DT_FLOAT", "tensorShape": {"dim": [{"size": "1"}, {"size": "1"}, {"size": "58"}, {"size": "1392"}]}}}, "dtype": {"type": "DT_FLOAT"}}}, {"name": "StatefulPartitionedCall/model/model013/efficientnetv2-b3/block6j_se_expand/BiasAdd/ReadVariableOp", "op": "Const", "attr": {"value": {"tensor": {"dtype": "DT_FLOAT", "tensorShape": {"dim": [{"size": "1392"}]}}}, "dtype": {"type": "DT_FLOAT"}}}, {"name": "StatefulPartitionedCall/model/model013/efficientnetv2-b3/block6i_se_squeeze/Mean/reduction_indices", "op": "Const", "attr": {"value": {"tensor": {"dtype": "DT_INT32", "tensorShape": {"dim": [{"size": "2"}]}}}, "dtype": {"type": "DT_INT32"}}}, {"name": "StatefulPartitionedCall/model/model013/efficientnetv2-b3/block6i_se_reshape/strided_slice/stack", "op": "Const", "attr": {"value": {"tensor": {"dtype": "DT_INT32", "tensorShape": {"dim": [{"size": "1"}]}}}, "dtype": {"type": "DT_INT32"}}}, {"name": "StatefulPartitionedCall/model/model013/efficientnetv2-b3/block6i_se_reshape/strided_slice/stack_1", "op": "Const", "attr": {"value": {"tensor": {"dtype": "DT_INT32", "tensorShape": {"dim": [{"size": "1"}]}}}, "dtype": {"type": "DT_INT32"}}}, {"name": "StatefulPartitionedCall/model/model013/efficientnetv2-b3/block6i_se_reshape/strided_slice/stack_2", "op": "Const", "attr": {"dtype": {"type": "DT_INT32"}, "value": {"tensor": {"dtype": "DT_INT32", "tensorShape": {"dim": [{"size": "1"}]}}}}}, {"name": "StatefulPartitionedCall/model/model013/efficientnetv2-b3/block6i_se_reshape/Reshape/shape/1", "op": "Const", "attr": {"value": {"tensor": {"dtype": "DT_INT32", "tensorShape": {}}}, "dtype": {"type": "DT_INT32"}}}, {"name": "StatefulPartitionedCall/model/model013/efficientnetv2-b3/block6i_se_reshape/Reshape/shape/2", "op": "Const", "attr": {"dtype": {"type": "DT_INT32"}, "value": {"tensor": {"dtype": "DT_INT32", "tensorShape": {}}}}}, {"name": "StatefulPartitionedCall/model/model013/efficientnetv2-b3/block6i_se_reshape/Reshape/shape/3", "op": "Const", "attr": {"dtype": {"type": "DT_INT32"}, "value": {"tensor": {"dtype": "DT_INT32", "tensorShape": {}}}}}, {"name": "StatefulPartitionedCall/model/model013/efficientnetv2-b3/block6i_se_reduce/Conv2D/ReadVariableOp", "op": "Const", "attr": {"value": {"tensor": {"dtype": "DT_FLOAT", "tensorShape": {"dim": [{"size": "1"}, {"size": "1"}, {"size": "1392"}, {"size": "58"}]}}}, "dtype": {"type": "DT_FLOAT"}}}, {"name": "StatefulPartitionedCall/model/model013/efficientnetv2-b3/block6i_se_reduce/BiasAdd/ReadVariableOp", "op": "Const", "attr": {"dtype": {"type": "DT_FLOAT"}, "value": {"tensor": {"dtype": "DT_FLOAT", "tensorShape": {"dim": [{"size": "58"}]}}}}}, {"name": "StatefulPartitionedCall/model/model013/efficientnetv2-b3/block6i_se_expand/Conv2D/ReadVariableOp", "op": "Const", "attr": {"value": {"tensor": {"dtype": "DT_FLOAT", "tensorShape": {"dim": [{"size": "1"}, {"size": "1"}, {"size": "58"}, {"size": "1392"}]}}}, "dtype": {"type": "DT_FLOAT"}}}, {"name": "StatefulPartitionedCall/model/model013/efficientnetv2-b3/block6i_se_expand/BiasAdd/ReadVariableOp", "op": "Const", "attr": {"value": {"tensor": {"dtype": "DT_FLOAT", "tensorShape": {"dim": [{"size": "1392"}]}}}, "dtype": {"type": "DT_FLOAT"}}}, {"name": "StatefulPartitionedCall/model/model013/efficientnetv2-b3/block6h_se_squeeze/Mean/reduction_indices", "op": "Const", "attr": {"dtype": {"type": "DT_INT32"}, "value": {"tensor": {"dtype": "DT_INT32", "tensorShape": {"dim": [{"size": "2"}]}}}}}, {"name": "StatefulPartitionedCall/model/model013/efficientnetv2-b3/block6h_se_reshape/strided_slice/stack", "op": "Const", "attr": {"value": {"tensor": {"dtype": "DT_INT32", "tensorShape": {"dim": [{"size": "1"}]}}}, "dtype": {"type": "DT_INT32"}}}, {"name": "StatefulPartitionedCall/model/model013/efficientnetv2-b3/block6h_se_reshape/strided_slice/stack_1", "op": "Const", "attr": {"value": {"tensor": {"dtype": "DT_INT32", "tensorShape": {"dim": [{"size": "1"}]}}}, "dtype": {"type": "DT_INT32"}}}, {"name": "StatefulPartitionedCall/model/model013/efficientnetv2-b3/block6h_se_reshape/strided_slice/stack_2", "op": "Const", "attr": {"dtype": {"type": "DT_INT32"}, "value": {"tensor": {"dtype": "DT_INT32", "tensorShape": {"dim": [{"size": "1"}]}}}}}, {"name": "StatefulPartitionedCall/model/model013/efficientnetv2-b3/block6h_se_reshape/Reshape/shape/1", "op": "Const", "attr": {"value": {"tensor": {"dtype": "DT_INT32", "tensorShape": {}}}, "dtype": {"type": "DT_INT32"}}}, {"name": "StatefulPartitionedCall/model/model013/efficientnetv2-b3/block6h_se_reshape/Reshape/shape/2", "op": "Const", "attr": {"dtype": {"type": "DT_INT32"}, "value": {"tensor": {"dtype": "DT_INT32", "tensorShape": {}}}}}, {"name": "StatefulPartitionedCall/model/model013/efficientnetv2-b3/block6h_se_reshape/Reshape/shape/3", "op": "Const", "attr": {"dtype": {"type": "DT_INT32"}, "value": {"tensor": {"dtype": "DT_INT32", "tensorShape": {}}}}}, {"name": "StatefulPartitionedCall/model/model013/efficientnetv2-b3/block6h_se_reduce/Conv2D/ReadVariableOp", "op": "Const", "attr": {"value": {"tensor": {"dtype": "DT_FLOAT", "tensorShape": {"dim": [{"size": "1"}, {"size": "1"}, {"size": "1392"}, {"size": "58"}]}}}, "dtype": {"type": "DT_FLOAT"}}}, {"name": "StatefulPartitionedCall/model/model013/efficientnetv2-b3/block6h_se_reduce/BiasAdd/ReadVariableOp", "op": "Const", "attr": {"value": {"tensor": {"dtype": "DT_FLOAT", "tensorShape": {"dim": [{"size": "58"}]}}}, "dtype": {"type": "DT_FLOAT"}}}, {"name": "StatefulPartitionedCall/model/model013/efficientnetv2-b3/block6h_se_expand/Conv2D/ReadVariableOp", "op": "Const", "attr": {"value": {"tensor": {"dtype": "DT_FLOAT", "tensorShape": {"dim": [{"size": "1"}, {"size": "1"}, {"size": "58"}, {"size": "1392"}]}}}, "dtype": {"type": "DT_FLOAT"}}}, {"name": "StatefulPartitionedCall/model/model013/efficientnetv2-b3/block6h_se_expand/BiasAdd/ReadVariableOp", "op": "Const", "attr": {"dtype": {"type": "DT_FLOAT"}, "value": {"tensor": {"dtype": "DT_FLOAT", "tensorShape": {"dim": [{"size": "1392"}]}}}}}, {"name": "StatefulPartitionedCall/model/model013/efficientnetv2-b3/block6g_se_squeeze/Mean/reduction_indices", "op": "Const", "attr": {"dtype": {"type": "DT_INT32"}, "value": {"tensor": {"dtype": "DT_INT32", "tensorShape": {"dim": [{"size": "2"}]}}}}}, {"name": "StatefulPartitionedCall/model/model013/efficientnetv2-b3/block6g_se_reshape/strided_slice/stack", "op": "Const", "attr": {"dtype": {"type": "DT_INT32"}, "value": {"tensor": {"dtype": "DT_INT32", "tensorShape": {"dim": [{"size": "1"}]}}}}}, {"name": "StatefulPartitionedCall/model/model013/efficientnetv2-b3/block6g_se_reshape/strided_slice/stack_1", "op": "Const", "attr": {"value": {"tensor": {"dtype": "DT_INT32", "tensorShape": {"dim": [{"size": "1"}]}}}, "dtype": {"type": "DT_INT32"}}}, {"name": "StatefulPartitionedCall/model/model013/efficientnetv2-b3/block6g_se_reshape/strided_slice/stack_2", "op": "Const", "attr": {"value": {"tensor": {"dtype": "DT_INT32", "tensorShape": {"dim": [{"size": "1"}]}}}, "dtype": {"type": "DT_INT32"}}}, {"name": "StatefulPartitionedCall/model/model013/efficientnetv2-b3/block6g_se_reshape/Reshape/shape/1", "op": "Const", "attr": {"dtype": {"type": "DT_INT32"}, "value": {"tensor": {"dtype": "DT_INT32", "tensorShape": {}}}}}, {"name": "StatefulPartitionedCall/model/model013/efficientnetv2-b3/block6g_se_reshape/Reshape/shape/2", "op": "Const", "attr": {"dtype": {"type": "DT_INT32"}, "value": {"tensor": {"dtype": "DT_INT32", "tensorShape": {}}}}}, {"name": "StatefulPartitionedCall/model/model013/efficientnetv2-b3/block6g_se_reshape/Reshape/shape/3", "op": "Const", "attr": {"value": {"tensor": {"dtype": "DT_INT32", "tensorShape": {}}}, "dtype": {"type": "DT_INT32"}}}, {"name": "StatefulPartitionedCall/model/model013/efficientnetv2-b3/block6g_se_reduce/Conv2D/ReadVariableOp", "op": "Const", "attr": {"value": {"tensor": {"dtype": "DT_FLOAT", "tensorShape": {"dim": [{"size": "1"}, {"size": "1"}, {"size": "1392"}, {"size": "58"}]}}}, "dtype": {"type": "DT_FLOAT"}}}, {"name": "StatefulPartitionedCall/model/model013/efficientnetv2-b3/block6g_se_reduce/BiasAdd/ReadVariableOp", "op": "Const", "attr": {"value": {"tensor": {"dtype": "DT_FLOAT", "tensorShape": {"dim": [{"size": "58"}]}}}, "dtype": {"type": "DT_FLOAT"}}}, {"name": "StatefulPartitionedCall/model/model013/efficientnetv2-b3/block6g_se_expand/Conv2D/ReadVariableOp", "op": "Const", "attr": {"value": {"tensor": {"dtype": "DT_FLOAT", "tensorShape": {"dim": [{"size": "1"}, {"size": "1"}, {"size": "58"}, {"size": "1392"}]}}}, "dtype": {"type": "DT_FLOAT"}}}, {"name": "StatefulPartitionedCall/model/model013/efficientnetv2-b3/block6g_se_expand/BiasAdd/ReadVariableOp", "op": "Const", "attr": {"value": {"tensor": {"dtype": "DT_FLOAT", "tensorShape": {"dim": [{"size": "1392"}]}}}, "dtype": {"type": "DT_FLOAT"}}}, {"name": "StatefulPartitionedCall/model/model013/efficientnetv2-b3/block6f_se_squeeze/Mean/reduction_indices", "op": "Const", "attr": {"dtype": {"type": "DT_INT32"}, "value": {"tensor": {"dtype": "DT_INT32", "tensorShape": {"dim": [{"size": "2"}]}}}}}, {"name": "StatefulPartitionedCall/model/model013/efficientnetv2-b3/block6f_se_reshape/strided_slice/stack", "op": "Const", "attr": {"value": {"tensor": {"dtype": "DT_INT32", "tensorShape": {"dim": [{"size": "1"}]}}}, "dtype": {"type": "DT_INT32"}}}, {"name": "StatefulPartitionedCall/model/model013/efficientnetv2-b3/block6f_se_reshape/strided_slice/stack_1", "op": "Const", "attr": {"dtype": {"type": "DT_INT32"}, "value": {"tensor": {"dtype": "DT_INT32", "tensorShape": {"dim": [{"size": "1"}]}}}}}, {"name": "StatefulPartitionedCall/model/model013/efficientnetv2-b3/block6f_se_reshape/strided_slice/stack_2", "op": "Const", "attr": {"value": {"tensor": {"dtype": "DT_INT32", "tensorShape": {"dim": [{"size": "1"}]}}}, "dtype": {"type": "DT_INT32"}}}, {"name": "StatefulPartitionedCall/model/model013/efficientnetv2-b3/block6f_se_reshape/Reshape/shape/1", "op": "Const", "attr": {"value": {"tensor": {"dtype": "DT_INT32", "tensorShape": {}}}, "dtype": {"type": "DT_INT32"}}}, {"name": "StatefulPartitionedCall/model/model013/efficientnetv2-b3/block6f_se_reshape/Reshape/shape/2", "op": "Const", "attr": {"value": {"tensor": {"dtype": "DT_INT32", "tensorShape": {}}}, "dtype": {"type": "DT_INT32"}}}, {"name": "StatefulPartitionedCall/model/model013/efficientnetv2-b3/block6f_se_reshape/Reshape/shape/3", "op": "Const", "attr": {"dtype": {"type": "DT_INT32"}, "value": {"tensor": {"dtype": "DT_INT32", "tensorShape": {}}}}}, {"name": "StatefulPartitionedCall/model/model013/efficientnetv2-b3/block6f_se_reduce/Conv2D/ReadVariableOp", "op": "Const", "attr": {"value": {"tensor": {"dtype": "DT_FLOAT", "tensorShape": {"dim": [{"size": "1"}, {"size": "1"}, {"size": "1392"}, {"size": "58"}]}}}, "dtype": {"type": "DT_FLOAT"}}}, {"name": "StatefulPartitionedCall/model/model013/efficientnetv2-b3/block6f_se_reduce/BiasAdd/ReadVariableOp", "op": "Const", "attr": {"value": {"tensor": {"dtype": "DT_FLOAT", "tensorShape": {"dim": [{"size": "58"}]}}}, "dtype": {"type": "DT_FLOAT"}}}, {"name": "StatefulPartitionedCall/model/model013/efficientnetv2-b3/block6f_se_expand/Conv2D/ReadVariableOp", "op": "Const", "attr": {"dtype": {"type": "DT_FLOAT"}, "value": {"tensor": {"dtype": "DT_FLOAT", "tensorShape": {"dim": [{"size": "1"}, {"size": "1"}, {"size": "58"}, {"size": "1392"}]}}}}}, {"name": "StatefulPartitionedCall/model/model013/efficientnetv2-b3/block6f_se_expand/BiasAdd/ReadVariableOp", "op": "Const", "attr": {"value": {"tensor": {"dtype": "DT_FLOAT", "tensorShape": {"dim": [{"size": "1392"}]}}}, "dtype": {"type": "DT_FLOAT"}}}, {"name": "StatefulPartitionedCall/model/model013/efficientnetv2-b3/block6e_se_squeeze/Mean/reduction_indices", "op": "Const", "attr": {"dtype": {"type": "DT_INT32"}, "value": {"tensor": {"dtype": "DT_INT32", "tensorShape": {"dim": [{"size": "2"}]}}}}}, {"name": "StatefulPartitionedCall/model/model013/efficientnetv2-b3/block6e_se_reshape/strided_slice/stack", "op": "Const", "attr": {"dtype": {"type": "DT_INT32"}, "value": {"tensor": {"dtype": "DT_INT32", "tensorShape": {"dim": [{"size": "1"}]}}}}}, {"name": "StatefulPartitionedCall/model/model013/efficientnetv2-b3/block6e_se_reshape/strided_slice/stack_1", "op": "Const", "attr": {"dtype": {"type": "DT_INT32"}, "value": {"tensor": {"dtype": "DT_INT32", "tensorShape": {"dim": [{"size": "1"}]}}}}}, {"name": "StatefulPartitionedCall/model/model013/efficientnetv2-b3/block6e_se_reshape/strided_slice/stack_2", "op": "Const", "attr": {"dtype": {"type": "DT_INT32"}, "value": {"tensor": {"dtype": "DT_INT32", "tensorShape": {"dim": [{"size": "1"}]}}}}}, {"name": "StatefulPartitionedCall/model/model013/efficientnetv2-b3/block6e_se_reshape/Reshape/shape/1", "op": "Const", "attr": {"dtype": {"type": "DT_INT32"}, "value": {"tensor": {"dtype": "DT_INT32", "tensorShape": {}}}}}, {"name": "StatefulPartitionedCall/model/model013/efficientnetv2-b3/block6e_se_reshape/Reshape/shape/2", "op": "Const", "attr": {"dtype": {"type": "DT_INT32"}, "value": {"tensor": {"dtype": "DT_INT32", "tensorShape": {}}}}}, {"name": "StatefulPartitionedCall/model/model013/efficientnetv2-b3/block6e_se_reshape/Reshape/shape/3", "op": "Const", "attr": {"value": {"tensor": {"dtype": "DT_INT32", "tensorShape": {}}}, "dtype": {"type": "DT_INT32"}}}, {"name": "StatefulPartitionedCall/model/model013/efficientnetv2-b3/block6e_se_reduce/Conv2D/ReadVariableOp", "op": "Const", "attr": {"dtype": {"type": "DT_FLOAT"}, "value": {"tensor": {"dtype": "DT_FLOAT", "tensorShape": {"dim": [{"size": "1"}, {"size": "1"}, {"size": "1392"}, {"size": "58"}]}}}}}, {"name": "StatefulPartitionedCall/model/model013/efficientnetv2-b3/block6e_se_reduce/BiasAdd/ReadVariableOp", "op": "Const", "attr": {"dtype": {"type": "DT_FLOAT"}, "value": {"tensor": {"dtype": "DT_FLOAT", "tensorShape": {"dim": [{"size": "58"}]}}}}}, {"name": "StatefulPartitionedCall/model/model013/efficientnetv2-b3/block6e_se_expand/Conv2D/ReadVariableOp", "op": "Const", "attr": {"dtype": {"type": "DT_FLOAT"}, "value": {"tensor": {"dtype": "DT_FLOAT", "tensorShape": {"dim": [{"size": "1"}, {"size": "1"}, {"size": "58"}, {"size": "1392"}]}}}}}, {"name": "StatefulPartitionedCall/model/model013/efficientnetv2-b3/block6e_se_expand/BiasAdd/ReadVariableOp", "op": "Const", "attr": {"dtype": {"type": "DT_FLOAT"}, "value": {"tensor": {"dtype": "DT_FLOAT", "tensorShape": {"dim": [{"size": "1392"}]}}}}}, {"name": "StatefulPartitionedCall/model/model013/efficientnetv2-b3/block6d_se_squeeze/Mean/reduction_indices", "op": "Const", "attr": {"dtype": {"type": "DT_INT32"}, "value": {"tensor": {"dtype": "DT_INT32", "tensorShape": {"dim": [{"size": "2"}]}}}}}, {"name": "StatefulPartitionedCall/model/model013/efficientnetv2-b3/block6d_se_reshape/strided_slice/stack", "op": "Const", "attr": {"dtype": {"type": "DT_INT32"}, "value": {"tensor": {"dtype": "DT_INT32", "tensorShape": {"dim": [{"size": "1"}]}}}}}, {"name": "StatefulPartitionedCall/model/model013/efficientnetv2-b3/block6d_se_reshape/strided_slice/stack_1", "op": "Const", "attr": {"dtype": {"type": "DT_INT32"}, "value": {"tensor": {"dtype": "DT_INT32", "tensorShape": {"dim": [{"size": "1"}]}}}}}, {"name": "StatefulPartitionedCall/model/model013/efficientnetv2-b3/block6d_se_reshape/strided_slice/stack_2", "op": "Const", "attr": {"dtype": {"type": "DT_INT32"}, "value": {"tensor": {"dtype": "DT_INT32", "tensorShape": {"dim": [{"size": "1"}]}}}}}, {"name": "StatefulPartitionedCall/model/model013/efficientnetv2-b3/block6d_se_reshape/Reshape/shape/1", "op": "Const", "attr": {"dtype": {"type": "DT_INT32"}, "value": {"tensor": {"dtype": "DT_INT32", "tensorShape": {}}}}}, {"name": "StatefulPartitionedCall/model/model013/efficientnetv2-b3/block6d_se_reshape/Reshape/shape/2", "op": "Const", "attr": {"dtype": {"type": "DT_INT32"}, "value": {"tensor": {"dtype": "DT_INT32", "tensorShape": {}}}}}, {"name": "StatefulPartitionedCall/model/model013/efficientnetv2-b3/block6d_se_reshape/Reshape/shape/3", "op": "Const", "attr": {"dtype": {"type": "DT_INT32"}, "value": {"tensor": {"dtype": "DT_INT32", "tensorShape": {}}}}}, {"name": "StatefulPartitionedCall/model/model013/efficientnetv2-b3/block6d_se_reduce/Conv2D/ReadVariableOp", "op": "Const", "attr": {"dtype": {"type": "DT_FLOAT"}, "value": {"tensor": {"dtype": "DT_FLOAT", "tensorShape": {"dim": [{"size": "1"}, {"size": "1"}, {"size": "1392"}, {"size": "58"}]}}}}}, {"name": "StatefulPartitionedCall/model/model013/efficientnetv2-b3/block6d_se_reduce/BiasAdd/ReadVariableOp", "op": "Const", "attr": {"value": {"tensor": {"dtype": "DT_FLOAT", "tensorShape": {"dim": [{"size": "58"}]}}}, "dtype": {"type": "DT_FLOAT"}}}, {"name": "StatefulPartitionedCall/model/model013/efficientnetv2-b3/block6d_se_expand/Conv2D/ReadVariableOp", "op": "Const", "attr": {"dtype": {"type": "DT_FLOAT"}, "value": {"tensor": {"dtype": "DT_FLOAT", "tensorShape": {"dim": [{"size": "1"}, {"size": "1"}, {"size": "58"}, {"size": "1392"}]}}}}}, {"name": "StatefulPartitionedCall/model/model013/efficientnetv2-b3/block6d_se_expand/BiasAdd/ReadVariableOp", "op": "Const", "attr": {"dtype": {"type": "DT_FLOAT"}, "value": {"tensor": {"dtype": "DT_FLOAT", "tensorShape": {"dim": [{"size": "1392"}]}}}}}, {"name": "StatefulPartitionedCall/model/model013/efficientnetv2-b3/block6c_se_squeeze/Mean/reduction_indices", "op": "Const", "attr": {"dtype": {"type": "DT_INT32"}, "value": {"tensor": {"dtype": "DT_INT32", "tensorShape": {"dim": [{"size": "2"}]}}}}}, {"name": "StatefulPartitionedCall/model/model013/efficientnetv2-b3/block6c_se_reshape/strided_slice/stack", "op": "Const", "attr": {"dtype": {"type": "DT_INT32"}, "value": {"tensor": {"dtype": "DT_INT32", "tensorShape": {"dim": [{"size": "1"}]}}}}}, {"name": "StatefulPartitionedCall/model/model013/efficientnetv2-b3/block6c_se_reshape/strided_slice/stack_1", "op": "Const", "attr": {"dtype": {"type": "DT_INT32"}, "value": {"tensor": {"dtype": "DT_INT32", "tensorShape": {"dim": [{"size": "1"}]}}}}}, {"name": "StatefulPartitionedCall/model/model013/efficientnetv2-b3/block6c_se_reshape/strided_slice/stack_2", "op": "Const", "attr": {"dtype": {"type": "DT_INT32"}, "value": {"tensor": {"dtype": "DT_INT32", "tensorShape": {"dim": [{"size": "1"}]}}}}}, {"name": "StatefulPartitionedCall/model/model013/efficientnetv2-b3/block6c_se_reshape/Reshape/shape/1", "op": "Const", "attr": {"dtype": {"type": "DT_INT32"}, "value": {"tensor": {"dtype": "DT_INT32", "tensorShape": {}}}}}, {"name": "StatefulPartitionedCall/model/model013/efficientnetv2-b3/block6c_se_reshape/Reshape/shape/2", "op": "Const", "attr": {"dtype": {"type": "DT_INT32"}, "value": {"tensor": {"dtype": "DT_INT32", "tensorShape": {}}}}}, {"name": "StatefulPartitionedCall/model/model013/efficientnetv2-b3/block6c_se_reshape/Reshape/shape/3", "op": "Const", "attr": {"dtype": {"type": "DT_INT32"}, "value": {"tensor": {"dtype": "DT_INT32", "tensorShape": {}}}}}, {"name": "StatefulPartitionedCall/model/model013/efficientnetv2-b3/block6c_se_reduce/Conv2D/ReadVariableOp", "op": "Const", "attr": {"dtype": {"type": "DT_FLOAT"}, "value": {"tensor": {"dtype": "DT_FLOAT", "tensorShape": {"dim": [{"size": "1"}, {"size": "1"}, {"size": "1392"}, {"size": "58"}]}}}}}, {"name": "StatefulPartitionedCall/model/model013/efficientnetv2-b3/block6c_se_reduce/BiasAdd/ReadVariableOp", "op": "Const", "attr": {"dtype": {"type": "DT_FLOAT"}, "value": {"tensor": {"dtype": "DT_FLOAT", "tensorShape": {"dim": [{"size": "58"}]}}}}}, {"name": "StatefulPartitionedCall/model/model013/efficientnetv2-b3/block6c_se_expand/Conv2D/ReadVariableOp", "op": "Const", "attr": {"dtype": {"type": "DT_FLOAT"}, "value": {"tensor": {"dtype": "DT_FLOAT", "tensorShape": {"dim": [{"size": "1"}, {"size": "1"}, {"size": "58"}, {"size": "1392"}]}}}}}, {"name": "StatefulPartitionedCall/model/model013/efficientnetv2-b3/block6c_se_expand/BiasAdd/ReadVariableOp", "op": "Const", "attr": {"dtype": {"type": "DT_FLOAT"}, "value": {"tensor": {"dtype": "DT_FLOAT", "tensorShape": {"dim": [{"size": "1392"}]}}}}}, {"name": "StatefulPartitionedCall/model/model013/efficientnetv2-b3/block6b_se_squeeze/Mean/reduction_indices", "op": "Const", "attr": {"dtype": {"type": "DT_INT32"}, "value": {"tensor": {"dtype": "DT_INT32", "tensorShape": {"dim": [{"size": "2"}]}}}}}, {"name": "StatefulPartitionedCall/model/model013/efficientnetv2-b3/block6b_se_reshape/strided_slice/stack", "op": "Const", "attr": {"dtype": {"type": "DT_INT32"}, "value": {"tensor": {"dtype": "DT_INT32", "tensorShape": {"dim": [{"size": "1"}]}}}}}, {"name": "StatefulPartitionedCall/model/model013/efficientnetv2-b3/block6b_se_reshape/strided_slice/stack_1", "op": "Const", "attr": {"dtype": {"type": "DT_INT32"}, "value": {"tensor": {"dtype": "DT_INT32", "tensorShape": {"dim": [{"size": "1"}]}}}}}, {"name": "StatefulPartitionedCall/model/model013/efficientnetv2-b3/block6b_se_reshape/strided_slice/stack_2", "op": "Const", "attr": {"dtype": {"type": "DT_INT32"}, "value": {"tensor": {"dtype": "DT_INT32", "tensorShape": {"dim": [{"size": "1"}]}}}}}, {"name": "StatefulPartitionedCall/model/model013/efficientnetv2-b3/block6b_se_reshape/Reshape/shape/1", "op": "Const", "attr": {"dtype": {"type": "DT_INT32"}, "value": {"tensor": {"dtype": "DT_INT32", "tensorShape": {}}}}}, {"name": "StatefulPartitionedCall/model/model013/efficientnetv2-b3/block6b_se_reshape/Reshape/shape/2", "op": "Const", "attr": {"dtype": {"type": "DT_INT32"}, "value": {"tensor": {"dtype": "DT_INT32", "tensorShape": {}}}}}, {"name": "StatefulPartitionedCall/model/model013/efficientnetv2-b3/block6b_se_reshape/Reshape/shape/3", "op": "Const", "attr": {"dtype": {"type": "DT_INT32"}, "value": {"tensor": {"dtype": "DT_INT32", "tensorShape": {}}}}}, {"name": "StatefulPartitionedCall/model/model013/efficientnetv2-b3/block6b_se_reduce/Conv2D/ReadVariableOp", "op": "Const", "attr": {"dtype": {"type": "DT_FLOAT"}, "value": {"tensor": {"dtype": "DT_FLOAT", "tensorShape": {"dim": [{"size": "1"}, {"size": "1"}, {"size": "1392"}, {"size": "58"}]}}}}}, {"name": "StatefulPartitionedCall/model/model013/efficientnetv2-b3/block6b_se_reduce/BiasAdd/ReadVariableOp", "op": "Const", "attr": {"value": {"tensor": {"dtype": "DT_FLOAT", "tensorShape": {"dim": [{"size": "58"}]}}}, "dtype": {"type": "DT_FLOAT"}}}, {"name": "StatefulPartitionedCall/model/model013/efficientnetv2-b3/block6b_se_expand/Conv2D/ReadVariableOp", "op": "Const", "attr": {"dtype": {"type": "DT_FLOAT"}, "value": {"tensor": {"dtype": "DT_FLOAT", "tensorShape": {"dim": [{"size": "1"}, {"size": "1"}, {"size": "58"}, {"size": "1392"}]}}}}}, {"name": "StatefulPartitionedCall/model/model013/efficientnetv2-b3/block6b_se_expand/BiasAdd/ReadVariableOp", "op": "Const", "attr": {"dtype": {"type": "DT_FLOAT"}, "value": {"tensor": {"dtype": "DT_FLOAT", "tensorShape": {"dim": [{"size": "1392"}]}}}}}, {"name": "StatefulPartitionedCall/model/model013/efficientnetv2-b3/block5g_se_squeeze/Mean/reduction_indices", "op": "Const", "attr": {"dtype": {"type": "DT_INT32"}, "value": {"tensor": {"dtype": "DT_INT32", "tensorShape": {"dim": [{"size": "2"}]}}}}}, {"name": "StatefulPartitionedCall/model/model013/efficientnetv2-b3/block5g_se_reshape/strided_slice/stack", "op": "Const", "attr": {"dtype": {"type": "DT_INT32"}, "value": {"tensor": {"dtype": "DT_INT32", "tensorShape": {"dim": [{"size": "1"}]}}}}}, {"name": "StatefulPartitionedCall/model/model013/efficientnetv2-b3/block5g_se_reshape/strided_slice/stack_1", "op": "Const", "attr": {"value": {"tensor": {"dtype": "DT_INT32", "tensorShape": {"dim": [{"size": "1"}]}}}, "dtype": {"type": "DT_INT32"}}}, {"name": "StatefulPartitionedCall/model/model013/efficientnetv2-b3/block5g_se_reshape/strided_slice/stack_2", "op": "Const", "attr": {"dtype": {"type": "DT_INT32"}, "value": {"tensor": {"dtype": "DT_INT32", "tensorShape": {"dim": [{"size": "1"}]}}}}}, {"name": "StatefulPartitionedCall/model/model013/efficientnetv2-b3/block5g_se_reshape/Reshape/shape/1", "op": "Const", "attr": {"dtype": {"type": "DT_INT32"}, "value": {"tensor": {"dtype": "DT_INT32", "tensorShape": {}}}}}, {"name": "StatefulPartitionedCall/model/model013/efficientnetv2-b3/block5g_se_reshape/Reshape/shape/2", "op": "Const", "attr": {"dtype": {"type": "DT_INT32"}, "value": {"tensor": {"dtype": "DT_INT32", "tensorShape": {}}}}}, {"name": "StatefulPartitionedCall/model/model013/efficientnetv2-b3/block5g_se_reshape/Reshape/shape/3", "op": "Const", "attr": {"value": {"tensor": {"dtype": "DT_INT32", "tensorShape": {}}}, "dtype": {"type": "DT_INT32"}}}, {"name": "StatefulPartitionedCall/model/model013/efficientnetv2-b3/block5g_se_reduce/Conv2D/ReadVariableOp", "op": "Const", "attr": {"dtype": {"type": "DT_FLOAT"}, "value": {"tensor": {"dtype": "DT_FLOAT", "tensorShape": {"dim": [{"size": "1"}, {"size": "1"}, {"size": "816"}, {"size": "34"}]}}}}}, {"name": "StatefulPartitionedCall/model/model013/efficientnetv2-b3/block5g_se_reduce/BiasAdd/ReadVariableOp", "op": "Const", "attr": {"dtype": {"type": "DT_FLOAT"}, "value": {"tensor": {"dtype": "DT_FLOAT", "tensorShape": {"dim": [{"size": "34"}]}}}}}, {"name": "StatefulPartitionedCall/model/model013/efficientnetv2-b3/block5g_se_expand/Conv2D/ReadVariableOp", "op": "Const", "attr": {"dtype": {"type": "DT_FLOAT"}, "value": {"tensor": {"dtype": "DT_FLOAT", "tensorShape": {"dim": [{"size": "1"}, {"size": "1"}, {"size": "34"}, {"size": "816"}]}}}}}, {"name": "StatefulPartitionedCall/model/model013/efficientnetv2-b3/block5g_se_expand/BiasAdd/ReadVariableOp", "op": "Const", "attr": {"dtype": {"type": "DT_FLOAT"}, "value": {"tensor": {"dtype": "DT_FLOAT", "tensorShape": {"dim": [{"size": "816"}]}}}}}, {"name": "StatefulPartitionedCall/model/model013/efficientnetv2-b3/block5f_se_squeeze/Mean/reduction_indices", "op": "Const", "attr": {"dtype": {"type": "DT_INT32"}, "value": {"tensor": {"dtype": "DT_INT32", "tensorShape": {"dim": [{"size": "2"}]}}}}}, {"name": "StatefulPartitionedCall/model/model013/efficientnetv2-b3/block5f_se_reshape/strided_slice/stack", "op": "Const", "attr": {"dtype": {"type": "DT_INT32"}, "value": {"tensor": {"dtype": "DT_INT32", "tensorShape": {"dim": [{"size": "1"}]}}}}}, {"name": "StatefulPartitionedCall/model/model013/efficientnetv2-b3/block5f_se_reshape/strided_slice/stack_1", "op": "Const", "attr": {"dtype": {"type": "DT_INT32"}, "value": {"tensor": {"dtype": "DT_INT32", "tensorShape": {"dim": [{"size": "1"}]}}}}}, {"name": "StatefulPartitionedCall/model/model013/efficientnetv2-b3/block5f_se_reshape/strided_slice/stack_2", "op": "Const", "attr": {"dtype": {"type": "DT_INT32"}, "value": {"tensor": {"dtype": "DT_INT32", "tensorShape": {"dim": [{"size": "1"}]}}}}}, {"name": "StatefulPartitionedCall/model/model013/efficientnetv2-b3/block5f_se_reshape/Reshape/shape/1", "op": "Const", "attr": {"dtype": {"type": "DT_INT32"}, "value": {"tensor": {"dtype": "DT_INT32", "tensorShape": {}}}}}, {"name": "StatefulPartitionedCall/model/model013/efficientnetv2-b3/block5f_se_reshape/Reshape/shape/2", "op": "Const", "attr": {"dtype": {"type": "DT_INT32"}, "value": {"tensor": {"dtype": "DT_INT32", "tensorShape": {}}}}}, {"name": "StatefulPartitionedCall/model/model013/efficientnetv2-b3/block5f_se_reshape/Reshape/shape/3", "op": "Const", "attr": {"dtype": {"type": "DT_INT32"}, "value": {"tensor": {"dtype": "DT_INT32", "tensorShape": {}}}}}, {"name": "StatefulPartitionedCall/model/model013/efficientnetv2-b3/block5f_se_reduce/Conv2D/ReadVariableOp", "op": "Const", "attr": {"dtype": {"type": "DT_FLOAT"}, "value": {"tensor": {"dtype": "DT_FLOAT", "tensorShape": {"dim": [{"size": "1"}, {"size": "1"}, {"size": "816"}, {"size": "34"}]}}}}}, {"name": "StatefulPartitionedCall/model/model013/efficientnetv2-b3/block5f_se_reduce/BiasAdd/ReadVariableOp", "op": "Const", "attr": {"dtype": {"type": "DT_FLOAT"}, "value": {"tensor": {"dtype": "DT_FLOAT", "tensorShape": {"dim": [{"size": "34"}]}}}}}, {"name": "StatefulPartitionedCall/model/model013/efficientnetv2-b3/block5f_se_expand/Conv2D/ReadVariableOp", "op": "Const", "attr": {"value": {"tensor": {"dtype": "DT_FLOAT", "tensorShape": {"dim": [{"size": "1"}, {"size": "1"}, {"size": "34"}, {"size": "816"}]}}}, "dtype": {"type": "DT_FLOAT"}}}, {"name": "StatefulPartitionedCall/model/model013/efficientnetv2-b3/block5f_se_expand/BiasAdd/ReadVariableOp", "op": "Const", "attr": {"dtype": {"type": "DT_FLOAT"}, "value": {"tensor": {"dtype": "DT_FLOAT", "tensorShape": {"dim": [{"size": "816"}]}}}}}, {"name": "StatefulPartitionedCall/model/model013/efficientnetv2-b3/block5e_se_squeeze/Mean/reduction_indices", "op": "Const", "attr": {"dtype": {"type": "DT_INT32"}, "value": {"tensor": {"dtype": "DT_INT32", "tensorShape": {"dim": [{"size": "2"}]}}}}}, {"name": "StatefulPartitionedCall/model/model013/efficientnetv2-b3/block5e_se_reshape/strided_slice/stack", "op": "Const", "attr": {"dtype": {"type": "DT_INT32"}, "value": {"tensor": {"dtype": "DT_INT32", "tensorShape": {"dim": [{"size": "1"}]}}}}}, {"name": "StatefulPartitionedCall/model/model013/efficientnetv2-b3/block5e_se_reshape/strided_slice/stack_1", "op": "Const", "attr": {"value": {"tensor": {"dtype": "DT_INT32", "tensorShape": {"dim": [{"size": "1"}]}}}, "dtype": {"type": "DT_INT32"}}}, {"name": "StatefulPartitionedCall/model/model013/efficientnetv2-b3/block5e_se_reshape/strided_slice/stack_2", "op": "Const", "attr": {"dtype": {"type": "DT_INT32"}, "value": {"tensor": {"dtype": "DT_INT32", "tensorShape": {"dim": [{"size": "1"}]}}}}}, {"name": "StatefulPartitionedCall/model/model013/efficientnetv2-b3/block5e_se_reshape/Reshape/shape/1", "op": "Const", "attr": {"dtype": {"type": "DT_INT32"}, "value": {"tensor": {"dtype": "DT_INT32", "tensorShape": {}}}}}, {"name": "StatefulPartitionedCall/model/model013/efficientnetv2-b3/block5e_se_reshape/Reshape/shape/2", "op": "Const", "attr": {"dtype": {"type": "DT_INT32"}, "value": {"tensor": {"dtype": "DT_INT32", "tensorShape": {}}}}}, {"name": "StatefulPartitionedCall/model/model013/efficientnetv2-b3/block5e_se_reshape/Reshape/shape/3", "op": "Const", "attr": {"dtype": {"type": "DT_INT32"}, "value": {"tensor": {"dtype": "DT_INT32", "tensorShape": {}}}}}, {"name": "StatefulPartitionedCall/model/model013/efficientnetv2-b3/block5e_se_reduce/Conv2D/ReadVariableOp", "op": "Const", "attr": {"dtype": {"type": "DT_FLOAT"}, "value": {"tensor": {"dtype": "DT_FLOAT", "tensorShape": {"dim": [{"size": "1"}, {"size": "1"}, {"size": "816"}, {"size": "34"}]}}}}}, {"name": "StatefulPartitionedCall/model/model013/efficientnetv2-b3/block5e_se_reduce/BiasAdd/ReadVariableOp", "op": "Const", "attr": {"value": {"tensor": {"dtype": "DT_FLOAT", "tensorShape": {"dim": [{"size": "34"}]}}}, "dtype": {"type": "DT_FLOAT"}}}, {"name": "StatefulPartitionedCall/model/model013/efficientnetv2-b3/block5e_se_expand/Conv2D/ReadVariableOp", "op": "Const", "attr": {"dtype": {"type": "DT_FLOAT"}, "value": {"tensor": {"dtype": "DT_FLOAT", "tensorShape": {"dim": [{"size": "1"}, {"size": "1"}, {"size": "34"}, {"size": "816"}]}}}}}, {"name": "StatefulPartitionedCall/model/model013/efficientnetv2-b3/block5e_se_expand/BiasAdd/ReadVariableOp", "op": "Const", "attr": {"dtype": {"type": "DT_FLOAT"}, "value": {"tensor": {"dtype": "DT_FLOAT", "tensorShape": {"dim": [{"size": "816"}]}}}}}, {"name": "StatefulPartitionedCall/model/model013/efficientnetv2-b3/block5d_se_squeeze/Mean/reduction_indices", "op": "Const", "attr": {"dtype": {"type": "DT_INT32"}, "value": {"tensor": {"dtype": "DT_INT32", "tensorShape": {"dim": [{"size": "2"}]}}}}}, {"name": "StatefulPartitionedCall/model/model013/efficientnetv2-b3/block5d_se_reshape/strided_slice/stack", "op": "Const", "attr": {"value": {"tensor": {"dtype": "DT_INT32", "tensorShape": {"dim": [{"size": "1"}]}}}, "dtype": {"type": "DT_INT32"}}}, {"name": "StatefulPartitionedCall/model/model013/efficientnetv2-b3/block5d_se_reshape/strided_slice/stack_1", "op": "Const", "attr": {"dtype": {"type": "DT_INT32"}, "value": {"tensor": {"dtype": "DT_INT32", "tensorShape": {"dim": [{"size": "1"}]}}}}}, {"name": "StatefulPartitionedCall/model/model013/efficientnetv2-b3/block5d_se_reshape/strided_slice/stack_2", "op": "Const", "attr": {"dtype": {"type": "DT_INT32"}, "value": {"tensor": {"dtype": "DT_INT32", "tensorShape": {"dim": [{"size": "1"}]}}}}}, {"name": "StatefulPartitionedCall/model/model013/efficientnetv2-b3/block5d_se_reshape/Reshape/shape/1", "op": "Const", "attr": {"dtype": {"type": "DT_INT32"}, "value": {"tensor": {"dtype": "DT_INT32", "tensorShape": {}}}}}, {"name": "StatefulPartitionedCall/model/model013/efficientnetv2-b3/block5d_se_reshape/Reshape/shape/2", "op": "Const", "attr": {"dtype": {"type": "DT_INT32"}, "value": {"tensor": {"dtype": "DT_INT32", "tensorShape": {}}}}}, {"name": "StatefulPartitionedCall/model/model013/efficientnetv2-b3/block5d_se_reshape/Reshape/shape/3", "op": "Const", "attr": {"dtype": {"type": "DT_INT32"}, "value": {"tensor": {"dtype": "DT_INT32", "tensorShape": {}}}}}, {"name": "StatefulPartitionedCall/model/model013/efficientnetv2-b3/block5d_se_reduce/Conv2D/ReadVariableOp", "op": "Const", "attr": {"dtype": {"type": "DT_FLOAT"}, "value": {"tensor": {"dtype": "DT_FLOAT", "tensorShape": {"dim": [{"size": "1"}, {"size": "1"}, {"size": "816"}, {"size": "34"}]}}}}}, {"name": "StatefulPartitionedCall/model/model013/efficientnetv2-b3/block5d_se_reduce/BiasAdd/ReadVariableOp", "op": "Const", "attr": {"dtype": {"type": "DT_FLOAT"}, "value": {"tensor": {"dtype": "DT_FLOAT", "tensorShape": {"dim": [{"size": "34"}]}}}}}, {"name": "StatefulPartitionedCall/model/model013/efficientnetv2-b3/block5d_se_expand/Conv2D/ReadVariableOp", "op": "Const", "attr": {"dtype": {"type": "DT_FLOAT"}, "value": {"tensor": {"dtype": "DT_FLOAT", "tensorShape": {"dim": [{"size": "1"}, {"size": "1"}, {"size": "34"}, {"size": "816"}]}}}}}, {"name": "StatefulPartitionedCall/model/model013/efficientnetv2-b3/block5d_se_expand/BiasAdd/ReadVariableOp", "op": "Const", "attr": {"value": {"tensor": {"dtype": "DT_FLOAT", "tensorShape": {"dim": [{"size": "816"}]}}}, "dtype": {"type": "DT_FLOAT"}}}, {"name": "StatefulPartitionedCall/model/model013/efficientnetv2-b3/block5c_se_squeeze/Mean/reduction_indices", "op": "Const", "attr": {"dtype": {"type": "DT_INT32"}, "value": {"tensor": {"dtype": "DT_INT32", "tensorShape": {"dim": [{"size": "2"}]}}}}}, {"name": "StatefulPartitionedCall/model/model013/efficientnetv2-b3/block5c_se_reshape/strided_slice/stack", "op": "Const", "attr": {"dtype": {"type": "DT_INT32"}, "value": {"tensor": {"dtype": "DT_INT32", "tensorShape": {"dim": [{"size": "1"}]}}}}}, {"name": "StatefulPartitionedCall/model/model013/efficientnetv2-b3/block5c_se_reshape/strided_slice/stack_1", "op": "Const", "attr": {"dtype": {"type": "DT_INT32"}, "value": {"tensor": {"dtype": "DT_INT32", "tensorShape": {"dim": [{"size": "1"}]}}}}}, {"name": "StatefulPartitionedCall/model/model013/efficientnetv2-b3/block5c_se_reshape/strided_slice/stack_2", "op": "Const", "attr": {"value": {"tensor": {"dtype": "DT_INT32", "tensorShape": {"dim": [{"size": "1"}]}}}, "dtype": {"type": "DT_INT32"}}}, {"name": "StatefulPartitionedCall/model/model013/efficientnetv2-b3/block5c_se_reshape/Reshape/shape/1", "op": "Const", "attr": {"dtype": {"type": "DT_INT32"}, "value": {"tensor": {"dtype": "DT_INT32", "tensorShape": {}}}}}, {"name": "StatefulPartitionedCall/model/model013/efficientnetv2-b3/block5c_se_reshape/Reshape/shape/2", "op": "Const", "attr": {"value": {"tensor": {"dtype": "DT_INT32", "tensorShape": {}}}, "dtype": {"type": "DT_INT32"}}}, {"name": "StatefulPartitionedCall/model/model013/efficientnetv2-b3/block5c_se_reshape/Reshape/shape/3", "op": "Const", "attr": {"dtype": {"type": "DT_INT32"}, "value": {"tensor": {"dtype": "DT_INT32", "tensorShape": {}}}}}, {"name": "StatefulPartitionedCall/model/model013/efficientnetv2-b3/block5c_se_reduce/Conv2D/ReadVariableOp", "op": "Const", "attr": {"dtype": {"type": "DT_FLOAT"}, "value": {"tensor": {"dtype": "DT_FLOAT", "tensorShape": {"dim": [{"size": "1"}, {"size": "1"}, {"size": "816"}, {"size": "34"}]}}}}}, {"name": "StatefulPartitionedCall/model/model013/efficientnetv2-b3/block5c_se_reduce/BiasAdd/ReadVariableOp", "op": "Const", "attr": {"dtype": {"type": "DT_FLOAT"}, "value": {"tensor": {"dtype": "DT_FLOAT", "tensorShape": {"dim": [{"size": "34"}]}}}}}, {"name": "StatefulPartitionedCall/model/model013/efficientnetv2-b3/block5c_se_expand/Conv2D/ReadVariableOp", "op": "Const", "attr": {"dtype": {"type": "DT_FLOAT"}, "value": {"tensor": {"dtype": "DT_FLOAT", "tensorShape": {"dim": [{"size": "1"}, {"size": "1"}, {"size": "34"}, {"size": "816"}]}}}}}, {"name": "StatefulPartitionedCall/model/model013/efficientnetv2-b3/block5c_se_expand/BiasAdd/ReadVariableOp", "op": "Const", "attr": {"dtype": {"type": "DT_FLOAT"}, "value": {"tensor": {"dtype": "DT_FLOAT", "tensorShape": {"dim": [{"size": "816"}]}}}}}, {"name": "StatefulPartitionedCall/model/model013/efficientnetv2-b3/block5b_se_squeeze/Mean/reduction_indices", "op": "Const", "attr": {"value": {"tensor": {"dtype": "DT_INT32", "tensorShape": {"dim": [{"size": "2"}]}}}, "dtype": {"type": "DT_INT32"}}}, {"name": "StatefulPartitionedCall/model/model013/efficientnetv2-b3/block5b_se_reshape/strided_slice/stack", "op": "Const", "attr": {"dtype": {"type": "DT_INT32"}, "value": {"tensor": {"dtype": "DT_INT32", "tensorShape": {"dim": [{"size": "1"}]}}}}}, {"name": "StatefulPartitionedCall/model/model013/efficientnetv2-b3/block5b_se_reshape/strided_slice/stack_1", "op": "Const", "attr": {"value": {"tensor": {"dtype": "DT_INT32", "tensorShape": {"dim": [{"size": "1"}]}}}, "dtype": {"type": "DT_INT32"}}}, {"name": "StatefulPartitionedCall/model/model013/efficientnetv2-b3/block5b_se_reshape/strided_slice/stack_2", "op": "Const", "attr": {"dtype": {"type": "DT_INT32"}, "value": {"tensor": {"dtype": "DT_INT32", "tensorShape": {"dim": [{"size": "1"}]}}}}}, {"name": "StatefulPartitionedCall/model/model013/efficientnetv2-b3/block5b_se_reshape/Reshape/shape/1", "op": "Const", "attr": {"dtype": {"type": "DT_INT32"}, "value": {"tensor": {"dtype": "DT_INT32", "tensorShape": {}}}}}, {"name": "StatefulPartitionedCall/model/model013/efficientnetv2-b3/block5b_se_reshape/Reshape/shape/2", "op": "Const", "attr": {"dtype": {"type": "DT_INT32"}, "value": {"tensor": {"dtype": "DT_INT32", "tensorShape": {}}}}}, {"name": "StatefulPartitionedCall/model/model013/efficientnetv2-b3/block5b_se_reshape/Reshape/shape/3", "op": "Const", "attr": {"dtype": {"type": "DT_INT32"}, "value": {"tensor": {"dtype": "DT_INT32", "tensorShape": {}}}}}, {"name": "StatefulPartitionedCall/model/model013/efficientnetv2-b3/block5b_se_reduce/Conv2D/ReadVariableOp", "op": "Const", "attr": {"value": {"tensor": {"dtype": "DT_FLOAT", "tensorShape": {"dim": [{"size": "1"}, {"size": "1"}, {"size": "816"}, {"size": "34"}]}}}, "dtype": {"type": "DT_FLOAT"}}}, {"name": "StatefulPartitionedCall/model/model013/efficientnetv2-b3/block5b_se_reduce/BiasAdd/ReadVariableOp", "op": "Const", "attr": {"dtype": {"type": "DT_FLOAT"}, "value": {"tensor": {"dtype": "DT_FLOAT", "tensorShape": {"dim": [{"size": "34"}]}}}}}, {"name": "StatefulPartitionedCall/model/model013/efficientnetv2-b3/block5b_se_expand/Conv2D/ReadVariableOp", "op": "Const", "attr": {"dtype": {"type": "DT_FLOAT"}, "value": {"tensor": {"dtype": "DT_FLOAT", "tensorShape": {"dim": [{"size": "1"}, {"size": "1"}, {"size": "34"}, {"size": "816"}]}}}}}, {"name": "StatefulPartitionedCall/model/model013/efficientnetv2-b3/block5b_se_expand/BiasAdd/ReadVariableOp", "op": "Const", "attr": {"dtype": {"type": "DT_FLOAT"}, "value": {"tensor": {"dtype": "DT_FLOAT", "tensorShape": {"dim": [{"size": "816"}]}}}}}, {"name": "StatefulPartitionedCall/model/model013/efficientnetv2-b3/block4e_se_squeeze/Mean/reduction_indices", "op": "Const", "attr": {"dtype": {"type": "DT_INT32"}, "value": {"tensor": {"dtype": "DT_INT32", "tensorShape": {"dim": [{"size": "2"}]}}}}}, {"name": "StatefulPartitionedCall/model/model013/efficientnetv2-b3/block4e_se_reshape/strided_slice/stack", "op": "Const", "attr": {"dtype": {"type": "DT_INT32"}, "value": {"tensor": {"dtype": "DT_INT32", "tensorShape": {"dim": [{"size": "1"}]}}}}}, {"name": "StatefulPartitionedCall/model/model013/efficientnetv2-b3/block4e_se_reshape/strided_slice/stack_1", "op": "Const", "attr": {"dtype": {"type": "DT_INT32"}, "value": {"tensor": {"dtype": "DT_INT32", "tensorShape": {"dim": [{"size": "1"}]}}}}}, {"name": "StatefulPartitionedCall/model/model013/efficientnetv2-b3/block4e_se_reshape/strided_slice/stack_2", "op": "Const", "attr": {"dtype": {"type": "DT_INT32"}, "value": {"tensor": {"dtype": "DT_INT32", "tensorShape": {"dim": [{"size": "1"}]}}}}}, {"name": "StatefulPartitionedCall/model/model013/efficientnetv2-b3/block4e_se_reshape/Reshape/shape/1", "op": "Const", "attr": {"value": {"tensor": {"dtype": "DT_INT32", "tensorShape": {}}}, "dtype": {"type": "DT_INT32"}}}, {"name": "StatefulPartitionedCall/model/model013/efficientnetv2-b3/block4e_se_reshape/Reshape/shape/2", "op": "Const", "attr": {"dtype": {"type": "DT_INT32"}, "value": {"tensor": {"dtype": "DT_INT32", "tensorShape": {}}}}}, {"name": "StatefulPartitionedCall/model/model013/efficientnetv2-b3/block4e_se_reshape/Reshape/shape/3", "op": "Const", "attr": {"dtype": {"type": "DT_INT32"}, "value": {"tensor": {"dtype": "DT_INT32", "tensorShape": {}}}}}, {"name": "StatefulPartitionedCall/model/model013/efficientnetv2-b3/block4e_se_reduce/Conv2D/ReadVariableOp", "op": "Const", "attr": {"dtype": {"type": "DT_FLOAT"}, "value": {"tensor": {"dtype": "DT_FLOAT", "tensorShape": {"dim": [{"size": "1"}, {"size": "1"}, {"size": "448"}, {"size": "28"}]}}}}}, {"name": "StatefulPartitionedCall/model/model013/efficientnetv2-b3/block4e_se_reduce/BiasAdd/ReadVariableOp", "op": "Const", "attr": {"dtype": {"type": "DT_FLOAT"}, "value": {"tensor": {"dtype": "DT_FLOAT", "tensorShape": {"dim": [{"size": "28"}]}}}}}, {"name": "StatefulPartitionedCall/model/model013/efficientnetv2-b3/block4e_se_expand/Conv2D/ReadVariableOp", "op": "Const", "attr": {"dtype": {"type": "DT_FLOAT"}, "value": {"tensor": {"dtype": "DT_FLOAT", "tensorShape": {"dim": [{"size": "1"}, {"size": "1"}, {"size": "28"}, {"size": "448"}]}}}}}, {"name": "StatefulPartitionedCall/model/model013/efficientnetv2-b3/block4e_se_expand/BiasAdd/ReadVariableOp", "op": "Const", "attr": {"dtype": {"type": "DT_FLOAT"}, "value": {"tensor": {"dtype": "DT_FLOAT", "tensorShape": {"dim": [{"size": "448"}]}}}}}, {"name": "StatefulPartitionedCall/model/model013/efficientnetv2-b3/block4d_se_squeeze/Mean/reduction_indices", "op": "Const", "attr": {"dtype": {"type": "DT_INT32"}, "value": {"tensor": {"dtype": "DT_INT32", "tensorShape": {"dim": [{"size": "2"}]}}}}}, {"name": "StatefulPartitionedCall/model/model013/efficientnetv2-b3/block4d_se_reshape/strided_slice/stack", "op": "Const", "attr": {"dtype": {"type": "DT_INT32"}, "value": {"tensor": {"dtype": "DT_INT32", "tensorShape": {"dim": [{"size": "1"}]}}}}}, {"name": "StatefulPartitionedCall/model/model013/efficientnetv2-b3/block4d_se_reshape/strided_slice/stack_1", "op": "Const", "attr": {"dtype": {"type": "DT_INT32"}, "value": {"tensor": {"dtype": "DT_INT32", "tensorShape": {"dim": [{"size": "1"}]}}}}}, {"name": "StatefulPartitionedCall/model/model013/efficientnetv2-b3/block4d_se_reshape/strided_slice/stack_2", "op": "Const", "attr": {"dtype": {"type": "DT_INT32"}, "value": {"tensor": {"dtype": "DT_INT32", "tensorShape": {"dim": [{"size": "1"}]}}}}}, {"name": "StatefulPartitionedCall/model/model013/efficientnetv2-b3/block4d_se_reshape/Reshape/shape/1", "op": "Const", "attr": {"dtype": {"type": "DT_INT32"}, "value": {"tensor": {"dtype": "DT_INT32", "tensorShape": {}}}}}, {"name": "StatefulPartitionedCall/model/model013/efficientnetv2-b3/block4d_se_reshape/Reshape/shape/2", "op": "Const", "attr": {"dtype": {"type": "DT_INT32"}, "value": {"tensor": {"dtype": "DT_INT32", "tensorShape": {}}}}}, {"name": "StatefulPartitionedCall/model/model013/efficientnetv2-b3/block4d_se_reshape/Reshape/shape/3", "op": "Const", "attr": {"dtype": {"type": "DT_INT32"}, "value": {"tensor": {"dtype": "DT_INT32", "tensorShape": {}}}}}, {"name": "StatefulPartitionedCall/model/model013/efficientnetv2-b3/block4d_se_reduce/Conv2D/ReadVariableOp", "op": "Const", "attr": {"value": {"tensor": {"dtype": "DT_FLOAT", "tensorShape": {"dim": [{"size": "1"}, {"size": "1"}, {"size": "448"}, {"size": "28"}]}}}, "dtype": {"type": "DT_FLOAT"}}}, {"name": "StatefulPartitionedCall/model/model013/efficientnetv2-b3/block4d_se_reduce/BiasAdd/ReadVariableOp", "op": "Const", "attr": {"value": {"tensor": {"dtype": "DT_FLOAT", "tensorShape": {"dim": [{"size": "28"}]}}}, "dtype": {"type": "DT_FLOAT"}}}, {"name": "StatefulPartitionedCall/model/model013/efficientnetv2-b3/block4d_se_expand/Conv2D/ReadVariableOp", "op": "Const", "attr": {"dtype": {"type": "DT_FLOAT"}, "value": {"tensor": {"dtype": "DT_FLOAT", "tensorShape": {"dim": [{"size": "1"}, {"size": "1"}, {"size": "28"}, {"size": "448"}]}}}}}, {"name": "StatefulPartitionedCall/model/model013/efficientnetv2-b3/block4d_se_expand/BiasAdd/ReadVariableOp", "op": "Const", "attr": {"value": {"tensor": {"dtype": "DT_FLOAT", "tensorShape": {"dim": [{"size": "448"}]}}}, "dtype": {"type": "DT_FLOAT"}}}, {"name": "StatefulPartitionedCall/model/model013/efficientnetv2-b3/block4c_se_squeeze/Mean/reduction_indices", "op": "Const", "attr": {"dtype": {"type": "DT_INT32"}, "value": {"tensor": {"dtype": "DT_INT32", "tensorShape": {"dim": [{"size": "2"}]}}}}}, {"name": "StatefulPartitionedCall/model/model013/efficientnetv2-b3/block4c_se_reshape/strided_slice/stack", "op": "Const", "attr": {"value": {"tensor": {"dtype": "DT_INT32", "tensorShape": {"dim": [{"size": "1"}]}}}, "dtype": {"type": "DT_INT32"}}}, {"name": "StatefulPartitionedCall/model/model013/efficientnetv2-b3/block4c_se_reshape/strided_slice/stack_1", "op": "Const", "attr": {"value": {"tensor": {"dtype": "DT_INT32", "tensorShape": {"dim": [{"size": "1"}]}}}, "dtype": {"type": "DT_INT32"}}}, {"name": "StatefulPartitionedCall/model/model013/efficientnetv2-b3/block4c_se_reshape/strided_slice/stack_2", "op": "Const", "attr": {"value": {"tensor": {"dtype": "DT_INT32", "tensorShape": {"dim": [{"size": "1"}]}}}, "dtype": {"type": "DT_INT32"}}}, {"name": "StatefulPartitionedCall/model/model013/efficientnetv2-b3/block4c_se_reshape/Reshape/shape/1", "op": "Const", "attr": {"value": {"tensor": {"dtype": "DT_INT32", "tensorShape": {}}}, "dtype": {"type": "DT_INT32"}}}, {"name": "StatefulPartitionedCall/model/model013/efficientnetv2-b3/block4c_se_reshape/Reshape/shape/2", "op": "Const", "attr": {"dtype": {"type": "DT_INT32"}, "value": {"tensor": {"dtype": "DT_INT32", "tensorShape": {}}}}}, {"name": "StatefulPartitionedCall/model/model013/efficientnetv2-b3/block4c_se_reshape/Reshape/shape/3", "op": "Const", "attr": {"value": {"tensor": {"dtype": "DT_INT32", "tensorShape": {}}}, "dtype": {"type": "DT_INT32"}}}, {"name": "StatefulPartitionedCall/model/model013/efficientnetv2-b3/block4c_se_reduce/Conv2D/ReadVariableOp", "op": "Const", "attr": {"value": {"tensor": {"dtype": "DT_FLOAT", "tensorShape": {"dim": [{"size": "1"}, {"size": "1"}, {"size": "448"}, {"size": "28"}]}}}, "dtype": {"type": "DT_FLOAT"}}}, {"name": "StatefulPartitionedCall/model/model013/efficientnetv2-b3/block4c_se_reduce/BiasAdd/ReadVariableOp", "op": "Const", "attr": {"value": {"tensor": {"dtype": "DT_FLOAT", "tensorShape": {"dim": [{"size": "28"}]}}}, "dtype": {"type": "DT_FLOAT"}}}, {"name": "StatefulPartitionedCall/model/model013/efficientnetv2-b3/block4c_se_expand/Conv2D/ReadVariableOp", "op": "Const", "attr": {"value": {"tensor": {"dtype": "DT_FLOAT", "tensorShape": {"dim": [{"size": "1"}, {"size": "1"}, {"size": "28"}, {"size": "448"}]}}}, "dtype": {"type": "DT_FLOAT"}}}, {"name": "StatefulPartitionedCall/model/model013/efficientnetv2-b3/block4c_se_expand/BiasAdd/ReadVariableOp", "op": "Const", "attr": {"value": {"tensor": {"dtype": "DT_FLOAT", "tensorShape": {"dim": [{"size": "448"}]}}}, "dtype": {"type": "DT_FLOAT"}}}, {"name": "StatefulPartitionedCall/model/model013/efficientnetv2-b3/block4b_se_squeeze/Mean/reduction_indices", "op": "Const", "attr": {"value": {"tensor": {"dtype": "DT_INT32", "tensorShape": {"dim": [{"size": "2"}]}}}, "dtype": {"type": "DT_INT32"}}}, {"name": "StatefulPartitionedCall/model/model013/efficientnetv2-b3/block4b_se_reshape/strided_slice/stack", "op": "Const", "attr": {"value": {"tensor": {"dtype": "DT_INT32", "tensorShape": {"dim": [{"size": "1"}]}}}, "dtype": {"type": "DT_INT32"}}}, {"name": "StatefulPartitionedCall/model/model013/efficientnetv2-b3/block4b_se_reshape/strided_slice/stack_1", "op": "Const", "attr": {"value": {"tensor": {"dtype": "DT_INT32", "tensorShape": {"dim": [{"size": "1"}]}}}, "dtype": {"type": "DT_INT32"}}}, {"name": "StatefulPartitionedCall/model/model013/efficientnetv2-b3/block4b_se_reshape/strided_slice/stack_2", "op": "Const", "attr": {"value": {"tensor": {"dtype": "DT_INT32", "tensorShape": {"dim": [{"size": "1"}]}}}, "dtype": {"type": "DT_INT32"}}}, {"name": "StatefulPartitionedCall/model/model013/efficientnetv2-b3/block4b_se_reshape/Reshape/shape/1", "op": "Const", "attr": {"value": {"tensor": {"dtype": "DT_INT32", "tensorShape": {}}}, "dtype": {"type": "DT_INT32"}}}, {"name": "StatefulPartitionedCall/model/model013/efficientnetv2-b3/block4b_se_reshape/Reshape/shape/2", "op": "Const", "attr": {"value": {"tensor": {"dtype": "DT_INT32", "tensorShape": {}}}, "dtype": {"type": "DT_INT32"}}}, {"name": "StatefulPartitionedCall/model/model013/efficientnetv2-b3/block4b_se_reshape/Reshape/shape/3", "op": "Const", "attr": {"value": {"tensor": {"dtype": "DT_INT32", "tensorShape": {}}}, "dtype": {"type": "DT_INT32"}}}, {"name": "StatefulPartitionedCall/model/model013/efficientnetv2-b3/block4b_se_reduce/Conv2D/ReadVariableOp", "op": "Const", "attr": {"value": {"tensor": {"dtype": "DT_FLOAT", "tensorShape": {"dim": [{"size": "1"}, {"size": "1"}, {"size": "448"}, {"size": "28"}]}}}, "dtype": {"type": "DT_FLOAT"}}}, {"name": "StatefulPartitionedCall/model/model013/efficientnetv2-b3/block4b_se_reduce/BiasAdd/ReadVariableOp", "op": "Const", "attr": {"value": {"tensor": {"dtype": "DT_FLOAT", "tensorShape": {"dim": [{"size": "28"}]}}}, "dtype": {"type": "DT_FLOAT"}}}, {"name": "StatefulPartitionedCall/model/model013/efficientnetv2-b3/block4b_se_expand/Conv2D/ReadVariableOp", "op": "Const", "attr": {"value": {"tensor": {"dtype": "DT_FLOAT", "tensorShape": {"dim": [{"size": "1"}, {"size": "1"}, {"size": "28"}, {"size": "448"}]}}}, "dtype": {"type": "DT_FLOAT"}}}, {"name": "StatefulPartitionedCall/model/model013/efficientnetv2-b3/block4b_se_expand/BiasAdd/ReadVariableOp", "op": "Const", "attr": {"value": {"tensor": {"dtype": "DT_FLOAT", "tensorShape": {"dim": [{"size": "448"}]}}}, "dtype": {"type": "DT_FLOAT"}}}, {"name": "StatefulPartitionedCall/model/model013/efficientnetv2-b3/rescaling/Cast/x", "op": "Const", "attr": {"dtype": {"type": "DT_FLOAT"}, "value": {"tensor": {"dtype": "DT_FLOAT", "tensorShape": {}}}}}, {"name": "StatefulPartitionedCall/model/model013/efficientnetv2-b3/rescaling/add", "op": "Const", "attr": {"value": {"tensor": {"dtype": "DT_FLOAT", "tensorShape": {"dim": [{"size": "1"}, {"size": "1"}, {"size": "1"}, {"size": "3"}]}}}, "dtype": {"type": "DT_FLOAT"}}}, {"name": "ConstantFolding/StatefulPartitionedCall/model/model013/efficientnetv2-b3/normalization/truediv_recip", "op": "Const", "attr": {"value": {"tensor": {"dtype": "DT_FLOAT", "tensorShape": {"dim": [{"size": "1"}, {"size": "1"}, {"size": "1"}, {"size": "3"}]}}}, "dtype": {"type": "DT_FLOAT"}}}, {"name": "StatefulPartitionedCall/model/model013/efficientnetv2-b3/block4a_se_squeeze/Mean/reduction_indices", "op": "Const", "attr": {"value": {"tensor": {"dtype": "DT_INT32", "tensorShape": {"dim": [{"size": "2"}]}}}, "dtype": {"type": "DT_INT32"}}}, {"name": "StatefulPartitionedCall/model/model013/efficientnetv2-b3/block4a_se_reshape/strided_slice/stack", "op": "Const", "attr": {"value": {"tensor": {"dtype": "DT_INT32", "tensorShape": {"dim": [{"size": "1"}]}}}, "dtype": {"type": "DT_INT32"}}}, {"name": "StatefulPartitionedCall/model/model013/efficientnetv2-b3/block4a_se_reshape/strided_slice/stack_1", "op": "Const", "attr": {"value": {"tensor": {"dtype": "DT_INT32", "tensorShape": {"dim": [{"size": "1"}]}}}, "dtype": {"type": "DT_INT32"}}}, {"name": "StatefulPartitionedCall/model/model013/efficientnetv2-b3/block4a_se_reshape/strided_slice/stack_2", "op": "Const", "attr": {"value": {"tensor": {"dtype": "DT_INT32", "tensorShape": {"dim": [{"size": "1"}]}}}, "dtype": {"type": "DT_INT32"}}}, {"name": "StatefulPartitionedCall/model/model013/efficientnetv2-b3/block4a_se_reshape/Reshape/shape/1", "op": "Const", "attr": {"value": {"tensor": {"dtype": "DT_INT32", "tensorShape": {}}}, "dtype": {"type": "DT_INT32"}}}, {"name": "StatefulPartitionedCall/model/model013/efficientnetv2-b3/block4a_se_reshape/Reshape/shape/2", "op": "Const", "attr": {"dtype": {"type": "DT_INT32"}, "value": {"tensor": {"dtype": "DT_INT32", "tensorShape": {}}}}}, {"name": "StatefulPartitionedCall/model/model013/efficientnetv2-b3/block4a_se_reshape/Reshape/shape/3", "op": "Const", "attr": {"value": {"tensor": {"dtype": "DT_INT32", "tensorShape": {}}}, "dtype": {"type": "DT_INT32"}}}, {"name": "StatefulPartitionedCall/model/model013/efficientnetv2-b3/block4a_se_reduce/Conv2D/ReadVariableOp", "op": "Const", "attr": {"value": {"tensor": {"dtype": "DT_FLOAT", "tensorShape": {"dim": [{"size": "1"}, {"size": "1"}, {"size": "224"}, {"size": "14"}]}}}, "dtype": {"type": "DT_FLOAT"}}}, {"name": "StatefulPartitionedCall/model/model013/efficientnetv2-b3/block4a_se_reduce/BiasAdd/ReadVariableOp", "op": "Const", "attr": {"value": {"tensor": {"dtype": "DT_FLOAT", "tensorShape": {"dim": [{"size": "14"}]}}}, "dtype": {"type": "DT_FLOAT"}}}, {"name": "StatefulPartitionedCall/model/model013/efficientnetv2-b3/block4a_se_expand/Conv2D/ReadVariableOp", "op": "Const", "attr": {"value": {"tensor": {"dtype": "DT_FLOAT", "tensorShape": {"dim": [{"size": "1"}, {"size": "1"}, {"size": "14"}, {"size": "224"}]}}}, "dtype": {"type": "DT_FLOAT"}}}, {"name": "StatefulPartitionedCall/model/model013/efficientnetv2-b3/block4a_se_expand/BiasAdd/ReadVariableOp", "op": "Const", "attr": {"value": {"tensor": {"dtype": "DT_FLOAT", "tensorShape": {"dim": [{"size": "224"}]}}}, "dtype": {"type": "DT_FLOAT"}}}, {"name": "StatefulPartitionedCall/model/model013/efficientnetv2-b3/block5a_se_squeeze/Mean/reduction_indices", "op": "Const", "attr": {"value": {"tensor": {"dtype": "DT_INT32", "tensorShape": {"dim": [{"size": "2"}]}}}, "dtype": {"type": "DT_INT32"}}}, {"name": "StatefulPartitionedCall/model/model013/efficientnetv2-b3/block5a_se_reshape/strided_slice/stack", "op": "Const", "attr": {"value": {"tensor": {"dtype": "DT_INT32", "tensorShape": {"dim": [{"size": "1"}]}}}, "dtype": {"type": "DT_INT32"}}}, {"name": "StatefulPartitionedCall/model/model013/efficientnetv2-b3/block5a_se_reshape/strided_slice/stack_1", "op": "Const", "attr": {"value": {"tensor": {"dtype": "DT_INT32", "tensorShape": {"dim": [{"size": "1"}]}}}, "dtype": {"type": "DT_INT32"}}}, {"name": "StatefulPartitionedCall/model/model013/efficientnetv2-b3/block5a_se_reshape/strided_slice/stack_2", "op": "Const", "attr": {"value": {"tensor": {"dtype": "DT_INT32", "tensorShape": {"dim": [{"size": "1"}]}}}, "dtype": {"type": "DT_INT32"}}}, {"name": "StatefulPartitionedCall/model/model013/efficientnetv2-b3/block5a_se_reshape/Reshape/shape/1", "op": "Const", "attr": {"dtype": {"type": "DT_INT32"}, "value": {"tensor": {"dtype": "DT_INT32", "tensorShape": {}}}}}, {"name": "StatefulPartitionedCall/model/model013/efficientnetv2-b3/block5a_se_reshape/Reshape/shape/2", "op": "Const", "attr": {"value": {"tensor": {"dtype": "DT_INT32", "tensorShape": {}}}, "dtype": {"type": "DT_INT32"}}}, {"name": "StatefulPartitionedCall/model/model013/efficientnetv2-b3/block5a_se_reshape/Reshape/shape/3", "op": "Const", "attr": {"value": {"tensor": {"dtype": "DT_INT32", "tensorShape": {}}}, "dtype": {"type": "DT_INT32"}}}, {"name": "StatefulPartitionedCall/model/model013/efficientnetv2-b3/block5a_se_reduce/Conv2D/ReadVariableOp", "op": "Const", "attr": {"value": {"tensor": {"dtype": "DT_FLOAT", "tensorShape": {"dim": [{"size": "1"}, {"size": "1"}, {"size": "672"}, {"size": "28"}]}}}, "dtype": {"type": "DT_FLOAT"}}}, {"name": "StatefulPartitionedCall/model/model013/efficientnetv2-b3/block5a_se_reduce/BiasAdd/ReadVariableOp", "op": "Const", "attr": {"value": {"tensor": {"dtype": "DT_FLOAT", "tensorShape": {"dim": [{"size": "28"}]}}}, "dtype": {"type": "DT_FLOAT"}}}, {"name": "StatefulPartitionedCall/model/model013/efficientnetv2-b3/block5a_se_expand/Conv2D/ReadVariableOp", "op": "Const", "attr": {"value": {"tensor": {"dtype": "DT_FLOAT", "tensorShape": {"dim": [{"size": "1"}, {"size": "1"}, {"size": "28"}, {"size": "672"}]}}}, "dtype": {"type": "DT_FLOAT"}}}, {"name": "StatefulPartitionedCall/model/model013/efficientnetv2-b3/block5a_se_expand/BiasAdd/ReadVariableOp", "op": "Const", "attr": {"dtype": {"type": "DT_FLOAT"}, "value": {"tensor": {"dtype": "DT_FLOAT", "tensorShape": {"dim": [{"size": "672"}]}}}}}, {"name": "StatefulPartitionedCall/model/model013/efficientnetv2-b3/block6a_se_squeeze/Mean/reduction_indices", "op": "Const", "attr": {"dtype": {"type": "DT_INT32"}, "value": {"tensor": {"dtype": "DT_INT32", "tensorShape": {"dim": [{"size": "2"}]}}}}}, {"name": "StatefulPartitionedCall/model/model013/efficientnetv2-b3/block6a_se_reshape/strided_slice/stack", "op": "Const", "attr": {"value": {"tensor": {"dtype": "DT_INT32", "tensorShape": {"dim": [{"size": "1"}]}}}, "dtype": {"type": "DT_INT32"}}}, {"name": "StatefulPartitionedCall/model/model013/efficientnetv2-b3/block6a_se_reshape/strided_slice/stack_1", "op": "Const", "attr": {"value": {"tensor": {"dtype": "DT_INT32", "tensorShape": {"dim": [{"size": "1"}]}}}, "dtype": {"type": "DT_INT32"}}}, {"name": "StatefulPartitionedCall/model/model013/efficientnetv2-b3/block6a_se_reshape/strided_slice/stack_2", "op": "Const", "attr": {"dtype": {"type": "DT_INT32"}, "value": {"tensor": {"dtype": "DT_INT32", "tensorShape": {"dim": [{"size": "1"}]}}}}}, {"name": "StatefulPartitionedCall/model/model013/efficientnetv2-b3/block6a_se_reshape/Reshape/shape/1", "op": "Const", "attr": {"value": {"tensor": {"dtype": "DT_INT32", "tensorShape": {}}}, "dtype": {"type": "DT_INT32"}}}, {"name": "StatefulPartitionedCall/model/model013/efficientnetv2-b3/block6a_se_reshape/Reshape/shape/2", "op": "Const", "attr": {"value": {"tensor": {"dtype": "DT_INT32", "tensorShape": {}}}, "dtype": {"type": "DT_INT32"}}}, {"name": "StatefulPartitionedCall/model/model013/efficientnetv2-b3/block6a_se_reshape/Reshape/shape/3", "op": "Const", "attr": {"value": {"tensor": {"dtype": "DT_INT32", "tensorShape": {}}}, "dtype": {"type": "DT_INT32"}}}, {"name": "StatefulPartitionedCall/model/model013/efficientnetv2-b3/block6a_se_reduce/Conv2D/ReadVariableOp", "op": "Const", "attr": {"value": {"tensor": {"dtype": "DT_FLOAT", "tensorShape": {"dim": [{"size": "1"}, {"size": "1"}, {"size": "816"}, {"size": "34"}]}}}, "dtype": {"type": "DT_FLOAT"}}}, {"name": "StatefulPartitionedCall/model/model013/efficientnetv2-b3/block6a_se_reduce/BiasAdd/ReadVariableOp", "op": "Const", "attr": {"dtype": {"type": "DT_FLOAT"}, "value": {"tensor": {"dtype": "DT_FLOAT", "tensorShape": {"dim": [{"size": "34"}]}}}}}, {"name": "StatefulPartitionedCall/model/model013/efficientnetv2-b3/block6a_se_expand/Conv2D/ReadVariableOp", "op": "Const", "attr": {"value": {"tensor": {"dtype": "DT_FLOAT", "tensorShape": {"dim": [{"size": "1"}, {"size": "1"}, {"size": "34"}, {"size": "816"}]}}}, "dtype": {"type": "DT_FLOAT"}}}, {"name": "StatefulPartitionedCall/model/model013/efficientnetv2-b3/block6a_se_expand/BiasAdd/ReadVariableOp", "op": "Const", "attr": {"value": {"tensor": {"dtype": "DT_FLOAT", "tensorShape": {"dim": [{"size": "816"}]}}}, "dtype": {"type": "DT_FLOAT"}}}, {"name": "StatefulPartitionedCall/model/model013/global_average_pooling2d/Mean/reduction_indices", "op": "Const", "attr": {"value": {"tensor": {"dtype": "DT_INT32", "tensorShape": {"dim": [{"size": "2"}]}}}, "dtype": {"type": "DT_INT32"}}}, {"name": "StatefulPartitionedCall/model/model013/dense/MatMul/ReadVariableOp", "op": "Const", "attr": {"dtype": {"type": "DT_FLOAT"}, "value": {"tensor": {"dtype": "DT_FLOAT", "tensorShape": {"dim": [{"size": "1536"}, {"size": "400"}]}}}}}, {"name": "StatefulPartitionedCall/model/model013/dense/BiasAdd/ReadVariableOp", "op": "Const", "attr": {"dtype": {"type": "DT_FLOAT"}, "value": {"tensor": {"dtype": "DT_FLOAT", "tensorShape": {"dim": [{"size": "400"}]}}}}}, {"name": "StatefulPartitionedCall/model/model016/efficientnetv2-b0/block6h_se_squeeze/Mean/reduction_indices", "op": "Const", "attr": {"value": {"tensor": {"dtype": "DT_INT32", "tensorShape": {"dim": [{"size": "2"}]}}}, "dtype": {"type": "DT_INT32"}}}, {"name": "StatefulPartitionedCall/model/model016/efficientnetv2-b0/block6h_se_reshape/strided_slice/stack", "op": "Const", "attr": {"dtype": {"type": "DT_INT32"}, "value": {"tensor": {"dtype": "DT_INT32", "tensorShape": {"dim": [{"size": "1"}]}}}}}, {"name": "StatefulPartitionedCall/model/model016/efficientnetv2-b0/block6h_se_reshape/strided_slice/stack_1", "op": "Const", "attr": {"dtype": {"type": "DT_INT32"}, "value": {"tensor": {"dtype": "DT_INT32", "tensorShape": {"dim": [{"size": "1"}]}}}}}, {"name": "StatefulPartitionedCall/model/model016/efficientnetv2-b0/block6h_se_reshape/strided_slice/stack_2", "op": "Const", "attr": {"dtype": {"type": "DT_INT32"}, "value": {"tensor": {"dtype": "DT_INT32", "tensorShape": {"dim": [{"size": "1"}]}}}}}, {"name": "StatefulPartitionedCall/model/model016/efficientnetv2-b0/block6h_se_reshape/Reshape/shape/1", "op": "Const", "attr": {"dtype": {"type": "DT_INT32"}, "value": {"tensor": {"dtype": "DT_INT32", "tensorShape": {}}}}}, {"name": "StatefulPartitionedCall/model/model016/efficientnetv2-b0/block6h_se_reshape/Reshape/shape/2", "op": "Const", "attr": {"dtype": {"type": "DT_INT32"}, "value": {"tensor": {"dtype": "DT_INT32", "tensorShape": {}}}}}, {"name": "StatefulPartitionedCall/model/model016/efficientnetv2-b0/block6h_se_reshape/Reshape/shape/3", "op": "Const", "attr": {"value": {"tensor": {"dtype": "DT_INT32", "tensorShape": {}}}, "dtype": {"type": "DT_INT32"}}}, {"name": "StatefulPartitionedCall/model/model016/efficientnetv2-b0/block6h_se_reduce/Conv2D/ReadVariableOp", "op": "Const", "attr": {"dtype": {"type": "DT_FLOAT"}, "value": {"tensor": {"dtype": "DT_FLOAT", "tensorShape": {"dim": [{"size": "1"}, {"size": "1"}, {"size": "1152"}, {"size": "48"}]}}}}}, {"name": "StatefulPartitionedCall/model/model016/efficientnetv2-b0/block6h_se_reduce/BiasAdd/ReadVariableOp", "op": "Const", "attr": {"value": {"tensor": {"dtype": "DT_FLOAT", "tensorShape": {"dim": [{"size": "48"}]}}}, "dtype": {"type": "DT_FLOAT"}}}, {"name": "StatefulPartitionedCall/model/model016/efficientnetv2-b0/block6h_se_expand/Conv2D/ReadVariableOp", "op": "Const", "attr": {"value": {"tensor": {"dtype": "DT_FLOAT", "tensorShape": {"dim": [{"size": "1"}, {"size": "1"}, {"size": "48"}, {"size": "1152"}]}}}, "dtype": {"type": "DT_FLOAT"}}}, {"name": "StatefulPartitionedCall/model/model016/efficientnetv2-b0/block6h_se_expand/BiasAdd/ReadVariableOp", "op": "Const", "attr": {"dtype": {"type": "DT_FLOAT"}, "value": {"tensor": {"dtype": "DT_FLOAT", "tensorShape": {"dim": [{"size": "1152"}]}}}}}, {"name": "StatefulPartitionedCall/model/model016/efficientnetv2-b0/block6g_se_squeeze/Mean/reduction_indices", "op": "Const", "attr": {"dtype": {"type": "DT_INT32"}, "value": {"tensor": {"dtype": "DT_INT32", "tensorShape": {"dim": [{"size": "2"}]}}}}}, {"name": "StatefulPartitionedCall/model/model016/efficientnetv2-b0/block6g_se_reshape/strided_slice/stack", "op": "Const", "attr": {"dtype": {"type": "DT_INT32"}, "value": {"tensor": {"dtype": "DT_INT32", "tensorShape": {"dim": [{"size": "1"}]}}}}}, {"name": "StatefulPartitionedCall/model/model016/efficientnetv2-b0/block6g_se_reshape/strided_slice/stack_1", "op": "Const", "attr": {"value": {"tensor": {"dtype": "DT_INT32", "tensorShape": {"dim": [{"size": "1"}]}}}, "dtype": {"type": "DT_INT32"}}}, {"name": "StatefulPartitionedCall/model/model016/efficientnetv2-b0/block6g_se_reshape/strided_slice/stack_2", "op": "Const", "attr": {"dtype": {"type": "DT_INT32"}, "value": {"tensor": {"dtype": "DT_INT32", "tensorShape": {"dim": [{"size": "1"}]}}}}}, {"name": "StatefulPartitionedCall/model/model016/efficientnetv2-b0/block6g_se_reshape/Reshape/shape/1", "op": "Const", "attr": {"value": {"tensor": {"dtype": "DT_INT32", "tensorShape": {}}}, "dtype": {"type": "DT_INT32"}}}, {"name": "StatefulPartitionedCall/model/model016/efficientnetv2-b0/block6g_se_reshape/Reshape/shape/2", "op": "Const", "attr": {"value": {"tensor": {"dtype": "DT_INT32", "tensorShape": {}}}, "dtype": {"type": "DT_INT32"}}}, {"name": "StatefulPartitionedCall/model/model016/efficientnetv2-b0/block6g_se_reshape/Reshape/shape/3", "op": "Const", "attr": {"dtype": {"type": "DT_INT32"}, "value": {"tensor": {"dtype": "DT_INT32", "tensorShape": {}}}}}, {"name": "StatefulPartitionedCall/model/model016/efficientnetv2-b0/block6g_se_reduce/Conv2D/ReadVariableOp", "op": "Const", "attr": {"value": {"tensor": {"dtype": "DT_FLOAT", "tensorShape": {"dim": [{"size": "1"}, {"size": "1"}, {"size": "1152"}, {"size": "48"}]}}}, "dtype": {"type": "DT_FLOAT"}}}, {"name": "StatefulPartitionedCall/model/model016/efficientnetv2-b0/block6g_se_reduce/BiasAdd/ReadVariableOp", "op": "Const", "attr": {"value": {"tensor": {"dtype": "DT_FLOAT", "tensorShape": {"dim": [{"size": "48"}]}}}, "dtype": {"type": "DT_FLOAT"}}}, {"name": "StatefulPartitionedCall/model/model016/efficientnetv2-b0/block6g_se_expand/Conv2D/ReadVariableOp", "op": "Const", "attr": {"dtype": {"type": "DT_FLOAT"}, "value": {"tensor": {"dtype": "DT_FLOAT", "tensorShape": {"dim": [{"size": "1"}, {"size": "1"}, {"size": "48"}, {"size": "1152"}]}}}}}, {"name": "StatefulPartitionedCall/model/model016/efficientnetv2-b0/block6g_se_expand/BiasAdd/ReadVariableOp", "op": "Const", "attr": {"value": {"tensor": {"dtype": "DT_FLOAT", "tensorShape": {"dim": [{"size": "1152"}]}}}, "dtype": {"type": "DT_FLOAT"}}}, {"name": "StatefulPartitionedCall/model/model016/efficientnetv2-b0/block6f_se_squeeze/Mean/reduction_indices", "op": "Const", "attr": {"value": {"tensor": {"dtype": "DT_INT32", "tensorShape": {"dim": [{"size": "2"}]}}}, "dtype": {"type": "DT_INT32"}}}, {"name": "StatefulPartitionedCall/model/model016/efficientnetv2-b0/block6f_se_reshape/strided_slice/stack", "op": "Const", "attr": {"value": {"tensor": {"dtype": "DT_INT32", "tensorShape": {"dim": [{"size": "1"}]}}}, "dtype": {"type": "DT_INT32"}}}, {"name": "StatefulPartitionedCall/model/model016/efficientnetv2-b0/block6f_se_reshape/strided_slice/stack_1", "op": "Const", "attr": {"value": {"tensor": {"dtype": "DT_INT32", "tensorShape": {"dim": [{"size": "1"}]}}}, "dtype": {"type": "DT_INT32"}}}, {"name": "StatefulPartitionedCall/model/model016/efficientnetv2-b0/block6f_se_reshape/strided_slice/stack_2", "op": "Const", "attr": {"dtype": {"type": "DT_INT32"}, "value": {"tensor": {"dtype": "DT_INT32", "tensorShape": {"dim": [{"size": "1"}]}}}}}, {"name": "StatefulPartitionedCall/model/model016/efficientnetv2-b0/block6f_se_reshape/Reshape/shape/1", "op": "Const", "attr": {"value": {"tensor": {"dtype": "DT_INT32", "tensorShape": {}}}, "dtype": {"type": "DT_INT32"}}}, {"name": "StatefulPartitionedCall/model/model016/efficientnetv2-b0/block6f_se_reshape/Reshape/shape/2", "op": "Const", "attr": {"value": {"tensor": {"dtype": "DT_INT32", "tensorShape": {}}}, "dtype": {"type": "DT_INT32"}}}, {"name": "StatefulPartitionedCall/model/model016/efficientnetv2-b0/block6f_se_reshape/Reshape/shape/3", "op": "Const", "attr": {"value": {"tensor": {"dtype": "DT_INT32", "tensorShape": {}}}, "dtype": {"type": "DT_INT32"}}}, {"name": "StatefulPartitionedCall/model/model016/efficientnetv2-b0/block6f_se_reduce/Conv2D/ReadVariableOp", "op": "Const", "attr": {"dtype": {"type": "DT_FLOAT"}, "value": {"tensor": {"dtype": "DT_FLOAT", "tensorShape": {"dim": [{"size": "1"}, {"size": "1"}, {"size": "1152"}, {"size": "48"}]}}}}}, {"name": "StatefulPartitionedCall/model/model016/efficientnetv2-b0/block6f_se_reduce/BiasAdd/ReadVariableOp", "op": "Const", "attr": {"dtype": {"type": "DT_FLOAT"}, "value": {"tensor": {"dtype": "DT_FLOAT", "tensorShape": {"dim": [{"size": "48"}]}}}}}, {"name": "StatefulPartitionedCall/model/model016/efficientnetv2-b0/block6f_se_expand/Conv2D/ReadVariableOp", "op": "Const", "attr": {"dtype": {"type": "DT_FLOAT"}, "value": {"tensor": {"dtype": "DT_FLOAT", "tensorShape": {"dim": [{"size": "1"}, {"size": "1"}, {"size": "48"}, {"size": "1152"}]}}}}}, {"name": "StatefulPartitionedCall/model/model016/efficientnetv2-b0/block6f_se_expand/BiasAdd/ReadVariableOp", "op": "Const", "attr": {"dtype": {"type": "DT_FLOAT"}, "value": {"tensor": {"dtype": "DT_FLOAT", "tensorShape": {"dim": [{"size": "1152"}]}}}}}, {"name": "StatefulPartitionedCall/model/model016/efficientnetv2-b0/block6e_se_squeeze/Mean/reduction_indices", "op": "Const", "attr": {"value": {"tensor": {"dtype": "DT_INT32", "tensorShape": {"dim": [{"size": "2"}]}}}, "dtype": {"type": "DT_INT32"}}}, {"name": "StatefulPartitionedCall/model/model016/efficientnetv2-b0/block6e_se_reshape/strided_slice/stack", "op": "Const", "attr": {"dtype": {"type": "DT_INT32"}, "value": {"tensor": {"dtype": "DT_INT32", "tensorShape": {"dim": [{"size": "1"}]}}}}}, {"name": "StatefulPartitionedCall/model/model016/efficientnetv2-b0/block6e_se_reshape/strided_slice/stack_1", "op": "Const", "attr": {"value": {"tensor": {"dtype": "DT_INT32", "tensorShape": {"dim": [{"size": "1"}]}}}, "dtype": {"type": "DT_INT32"}}}, {"name": "StatefulPartitionedCall/model/model016/efficientnetv2-b0/block6e_se_reshape/strided_slice/stack_2", "op": "Const", "attr": {"dtype": {"type": "DT_INT32"}, "value": {"tensor": {"dtype": "DT_INT32", "tensorShape": {"dim": [{"size": "1"}]}}}}}, {"name": "StatefulPartitionedCall/model/model016/efficientnetv2-b0/block6e_se_reshape/Reshape/shape/1", "op": "Const", "attr": {"dtype": {"type": "DT_INT32"}, "value": {"tensor": {"dtype": "DT_INT32", "tensorShape": {}}}}}, {"name": "StatefulPartitionedCall/model/model016/efficientnetv2-b0/block6e_se_reshape/Reshape/shape/2", "op": "Const", "attr": {"value": {"tensor": {"dtype": "DT_INT32", "tensorShape": {}}}, "dtype": {"type": "DT_INT32"}}}, {"name": "StatefulPartitionedCall/model/model016/efficientnetv2-b0/block6e_se_reshape/Reshape/shape/3", "op": "Const", "attr": {"value": {"tensor": {"dtype": "DT_INT32", "tensorShape": {}}}, "dtype": {"type": "DT_INT32"}}}, {"name": "StatefulPartitionedCall/model/model016/efficientnetv2-b0/block6e_se_reduce/Conv2D/ReadVariableOp", "op": "Const", "attr": {"dtype": {"type": "DT_FLOAT"}, "value": {"tensor": {"dtype": "DT_FLOAT", "tensorShape": {"dim": [{"size": "1"}, {"size": "1"}, {"size": "1152"}, {"size": "48"}]}}}}}, {"name": "StatefulPartitionedCall/model/model016/efficientnetv2-b0/block6e_se_reduce/BiasAdd/ReadVariableOp", "op": "Const", "attr": {"value": {"tensor": {"dtype": "DT_FLOAT", "tensorShape": {"dim": [{"size": "48"}]}}}, "dtype": {"type": "DT_FLOAT"}}}, {"name": "StatefulPartitionedCall/model/model016/efficientnetv2-b0/block6e_se_expand/Conv2D/ReadVariableOp", "op": "Const", "attr": {"value": {"tensor": {"dtype": "DT_FLOAT", "tensorShape": {"dim": [{"size": "1"}, {"size": "1"}, {"size": "48"}, {"size": "1152"}]}}}, "dtype": {"type": "DT_FLOAT"}}}, {"name": "StatefulPartitionedCall/model/model016/efficientnetv2-b0/block6e_se_expand/BiasAdd/ReadVariableOp", "op": "Const", "attr": {"value": {"tensor": {"dtype": "DT_FLOAT", "tensorShape": {"dim": [{"size": "1152"}]}}}, "dtype": {"type": "DT_FLOAT"}}}, {"name": "StatefulPartitionedCall/model/model016/efficientnetv2-b0/block6d_se_squeeze/Mean/reduction_indices", "op": "Const", "attr": {"dtype": {"type": "DT_INT32"}, "value": {"tensor": {"dtype": "DT_INT32", "tensorShape": {"dim": [{"size": "2"}]}}}}}, {"name": "StatefulPartitionedCall/model/model016/efficientnetv2-b0/block6d_se_reshape/strided_slice/stack", "op": "Const", "attr": {"dtype": {"type": "DT_INT32"}, "value": {"tensor": {"dtype": "DT_INT32", "tensorShape": {"dim": [{"size": "1"}]}}}}}, {"name": "StatefulPartitionedCall/model/model016/efficientnetv2-b0/block6d_se_reshape/strided_slice/stack_1", "op": "Const", "attr": {"dtype": {"type": "DT_INT32"}, "value": {"tensor": {"dtype": "DT_INT32", "tensorShape": {"dim": [{"size": "1"}]}}}}}, {"name": "StatefulPartitionedCall/model/model016/efficientnetv2-b0/block6d_se_reshape/strided_slice/stack_2", "op": "Const", "attr": {"dtype": {"type": "DT_INT32"}, "value": {"tensor": {"dtype": "DT_INT32", "tensorShape": {"dim": [{"size": "1"}]}}}}}, {"name": "StatefulPartitionedCall/model/model016/efficientnetv2-b0/block6d_se_reshape/Reshape/shape/1", "op": "Const", "attr": {"value": {"tensor": {"dtype": "DT_INT32", "tensorShape": {}}}, "dtype": {"type": "DT_INT32"}}}, {"name": "StatefulPartitionedCall/model/model016/efficientnetv2-b0/block6d_se_reshape/Reshape/shape/2", "op": "Const", "attr": {"value": {"tensor": {"dtype": "DT_INT32", "tensorShape": {}}}, "dtype": {"type": "DT_INT32"}}}, {"name": "StatefulPartitionedCall/model/model016/efficientnetv2-b0/block6d_se_reshape/Reshape/shape/3", "op": "Const", "attr": {"dtype": {"type": "DT_INT32"}, "value": {"tensor": {"dtype": "DT_INT32", "tensorShape": {}}}}}, {"name": "StatefulPartitionedCall/model/model016/efficientnetv2-b0/block6d_se_reduce/Conv2D/ReadVariableOp", "op": "Const", "attr": {"value": {"tensor": {"dtype": "DT_FLOAT", "tensorShape": {"dim": [{"size": "1"}, {"size": "1"}, {"size": "1152"}, {"size": "48"}]}}}, "dtype": {"type": "DT_FLOAT"}}}, {"name": "StatefulPartitionedCall/model/model016/efficientnetv2-b0/block6d_se_reduce/BiasAdd/ReadVariableOp", "op": "Const", "attr": {"value": {"tensor": {"dtype": "DT_FLOAT", "tensorShape": {"dim": [{"size": "48"}]}}}, "dtype": {"type": "DT_FLOAT"}}}, {"name": "StatefulPartitionedCall/model/model016/efficientnetv2-b0/block6d_se_expand/Conv2D/ReadVariableOp", "op": "Const", "attr": {"value": {"tensor": {"dtype": "DT_FLOAT", "tensorShape": {"dim": [{"size": "1"}, {"size": "1"}, {"size": "48"}, {"size": "1152"}]}}}, "dtype": {"type": "DT_FLOAT"}}}, {"name": "StatefulPartitionedCall/model/model016/efficientnetv2-b0/block6d_se_expand/BiasAdd/ReadVariableOp", "op": "Const", "attr": {"value": {"tensor": {"dtype": "DT_FLOAT", "tensorShape": {"dim": [{"size": "1152"}]}}}, "dtype": {"type": "DT_FLOAT"}}}, {"name": "StatefulPartitionedCall/model/model016/efficientnetv2-b0/block6c_se_squeeze/Mean/reduction_indices", "op": "Const", "attr": {"value": {"tensor": {"dtype": "DT_INT32", "tensorShape": {"dim": [{"size": "2"}]}}}, "dtype": {"type": "DT_INT32"}}}, {"name": "StatefulPartitionedCall/model/model016/efficientnetv2-b0/block6c_se_reshape/strided_slice/stack", "op": "Const", "attr": {"value": {"tensor": {"dtype": "DT_INT32", "tensorShape": {"dim": [{"size": "1"}]}}}, "dtype": {"type": "DT_INT32"}}}, {"name": "StatefulPartitionedCall/model/model016/efficientnetv2-b0/block6c_se_reshape/strided_slice/stack_1", "op": "Const", "attr": {"dtype": {"type": "DT_INT32"}, "value": {"tensor": {"dtype": "DT_INT32", "tensorShape": {"dim": [{"size": "1"}]}}}}}, {"name": "StatefulPartitionedCall/model/model016/efficientnetv2-b0/block6c_se_reshape/strided_slice/stack_2", "op": "Const", "attr": {"value": {"tensor": {"dtype": "DT_INT32", "tensorShape": {"dim": [{"size": "1"}]}}}, "dtype": {"type": "DT_INT32"}}}, {"name": "StatefulPartitionedCall/model/model016/efficientnetv2-b0/block6c_se_reshape/Reshape/shape/1", "op": "Const", "attr": {"value": {"tensor": {"dtype": "DT_INT32", "tensorShape": {}}}, "dtype": {"type": "DT_INT32"}}}, {"name": "StatefulPartitionedCall/model/model016/efficientnetv2-b0/block6c_se_reshape/Reshape/shape/2", "op": "Const", "attr": {"value": {"tensor": {"dtype": "DT_INT32", "tensorShape": {}}}, "dtype": {"type": "DT_INT32"}}}, {"name": "StatefulPartitionedCall/model/model016/efficientnetv2-b0/block6c_se_reshape/Reshape/shape/3", "op": "Const", "attr": {"value": {"tensor": {"dtype": "DT_INT32", "tensorShape": {}}}, "dtype": {"type": "DT_INT32"}}}, {"name": "StatefulPartitionedCall/model/model016/efficientnetv2-b0/block6c_se_reduce/Conv2D/ReadVariableOp", "op": "Const", "attr": {"value": {"tensor": {"dtype": "DT_FLOAT", "tensorShape": {"dim": [{"size": "1"}, {"size": "1"}, {"size": "1152"}, {"size": "48"}]}}}, "dtype": {"type": "DT_FLOAT"}}}, {"name": "StatefulPartitionedCall/model/model016/efficientnetv2-b0/block6c_se_reduce/BiasAdd/ReadVariableOp", "op": "Const", "attr": {"dtype": {"type": "DT_FLOAT"}, "value": {"tensor": {"dtype": "DT_FLOAT", "tensorShape": {"dim": [{"size": "48"}]}}}}}, {"name": "StatefulPartitionedCall/model/model016/efficientnetv2-b0/block6c_se_expand/Conv2D/ReadVariableOp", "op": "Const", "attr": {"dtype": {"type": "DT_FLOAT"}, "value": {"tensor": {"dtype": "DT_FLOAT", "tensorShape": {"dim": [{"size": "1"}, {"size": "1"}, {"size": "48"}, {"size": "1152"}]}}}}}, {"name": "StatefulPartitionedCall/model/model016/efficientnetv2-b0/block6c_se_expand/BiasAdd/ReadVariableOp", "op": "Const", "attr": {"dtype": {"type": "DT_FLOAT"}, "value": {"tensor": {"dtype": "DT_FLOAT", "tensorShape": {"dim": [{"size": "1152"}]}}}}}, {"name": "StatefulPartitionedCall/model/model016/efficientnetv2-b0/block6b_se_squeeze/Mean/reduction_indices", "op": "Const", "attr": {"dtype": {"type": "DT_INT32"}, "value": {"tensor": {"dtype": "DT_INT32", "tensorShape": {"dim": [{"size": "2"}]}}}}}, {"name": "StatefulPartitionedCall/model/model016/efficientnetv2-b0/block6b_se_reshape/strided_slice/stack", "op": "Const", "attr": {"value": {"tensor": {"dtype": "DT_INT32", "tensorShape": {"dim": [{"size": "1"}]}}}, "dtype": {"type": "DT_INT32"}}}, {"name": "StatefulPartitionedCall/model/model016/efficientnetv2-b0/block6b_se_reshape/strided_slice/stack_1", "op": "Const", "attr": {"value": {"tensor": {"dtype": "DT_INT32", "tensorShape": {"dim": [{"size": "1"}]}}}, "dtype": {"type": "DT_INT32"}}}, {"name": "StatefulPartitionedCall/model/model016/efficientnetv2-b0/block6b_se_reshape/strided_slice/stack_2", "op": "Const", "attr": {"dtype": {"type": "DT_INT32"}, "value": {"tensor": {"dtype": "DT_INT32", "tensorShape": {"dim": [{"size": "1"}]}}}}}, {"name": "StatefulPartitionedCall/model/model016/efficientnetv2-b0/block6b_se_reshape/Reshape/shape/1", "op": "Const", "attr": {"dtype": {"type": "DT_INT32"}, "value": {"tensor": {"dtype": "DT_INT32", "tensorShape": {}}}}}, {"name": "StatefulPartitionedCall/model/model016/efficientnetv2-b0/block6b_se_reshape/Reshape/shape/2", "op": "Const", "attr": {"value": {"tensor": {"dtype": "DT_INT32", "tensorShape": {}}}, "dtype": {"type": "DT_INT32"}}}, {"name": "StatefulPartitionedCall/model/model016/efficientnetv2-b0/block6b_se_reshape/Reshape/shape/3", "op": "Const", "attr": {"value": {"tensor": {"dtype": "DT_INT32", "tensorShape": {}}}, "dtype": {"type": "DT_INT32"}}}, {"name": "StatefulPartitionedCall/model/model016/efficientnetv2-b0/block6b_se_reduce/Conv2D/ReadVariableOp", "op": "Const", "attr": {"dtype": {"type": "DT_FLOAT"}, "value": {"tensor": {"dtype": "DT_FLOAT", "tensorShape": {"dim": [{"size": "1"}, {"size": "1"}, {"size": "1152"}, {"size": "48"}]}}}}}, {"name": "StatefulPartitionedCall/model/model016/efficientnetv2-b0/block6b_se_reduce/BiasAdd/ReadVariableOp", "op": "Const", "attr": {"dtype": {"type": "DT_FLOAT"}, "value": {"tensor": {"dtype": "DT_FLOAT", "tensorShape": {"dim": [{"size": "48"}]}}}}}, {"name": "StatefulPartitionedCall/model/model016/efficientnetv2-b0/block6b_se_expand/Conv2D/ReadVariableOp", "op": "Const", "attr": {"value": {"tensor": {"dtype": "DT_FLOAT", "tensorShape": {"dim": [{"size": "1"}, {"size": "1"}, {"size": "48"}, {"size": "1152"}]}}}, "dtype": {"type": "DT_FLOAT"}}}, {"name": "StatefulPartitionedCall/model/model016/efficientnetv2-b0/block6b_se_expand/BiasAdd/ReadVariableOp", "op": "Const", "attr": {"dtype": {"type": "DT_FLOAT"}, "value": {"tensor": {"dtype": "DT_FLOAT", "tensorShape": {"dim": [{"size": "1152"}]}}}}}, {"name": "StatefulPartitionedCall/model/model016/efficientnetv2-b0/block5e_se_squeeze/Mean/reduction_indices", "op": "Const", "attr": {"dtype": {"type": "DT_INT32"}, "value": {"tensor": {"dtype": "DT_INT32", "tensorShape": {"dim": [{"size": "2"}]}}}}}, {"name": "StatefulPartitionedCall/model/model016/efficientnetv2-b0/block5e_se_reshape/strided_slice/stack", "op": "Const", "attr": {"dtype": {"type": "DT_INT32"}, "value": {"tensor": {"dtype": "DT_INT32", "tensorShape": {"dim": [{"size": "1"}]}}}}}, {"name": "StatefulPartitionedCall/model/model016/efficientnetv2-b0/block5e_se_reshape/strided_slice/stack_1", "op": "Const", "attr": {"dtype": {"type": "DT_INT32"}, "value": {"tensor": {"dtype": "DT_INT32", "tensorShape": {"dim": [{"size": "1"}]}}}}}, {"name": "StatefulPartitionedCall/model/model016/efficientnetv2-b0/block5e_se_reshape/strided_slice/stack_2", "op": "Const", "attr": {"dtype": {"type": "DT_INT32"}, "value": {"tensor": {"dtype": "DT_INT32", "tensorShape": {"dim": [{"size": "1"}]}}}}}, {"name": "StatefulPartitionedCall/model/model016/efficientnetv2-b0/block5e_se_reshape/Reshape/shape/1", "op": "Const", "attr": {"dtype": {"type": "DT_INT32"}, "value": {"tensor": {"dtype": "DT_INT32", "tensorShape": {}}}}}, {"name": "StatefulPartitionedCall/model/model016/efficientnetv2-b0/block5e_se_reshape/Reshape/shape/2", "op": "Const", "attr": {"dtype": {"type": "DT_INT32"}, "value": {"tensor": {"dtype": "DT_INT32", "tensorShape": {}}}}}, {"name": "StatefulPartitionedCall/model/model016/efficientnetv2-b0/block5e_se_reshape/Reshape/shape/3", "op": "Const", "attr": {"dtype": {"type": "DT_INT32"}, "value": {"tensor": {"dtype": "DT_INT32", "tensorShape": {}}}}}, {"name": "StatefulPartitionedCall/model/model016/efficientnetv2-b0/block5e_se_reduce/Conv2D/ReadVariableOp", "op": "Const", "attr": {"dtype": {"type": "DT_FLOAT"}, "value": {"tensor": {"dtype": "DT_FLOAT", "tensorShape": {"dim": [{"size": "1"}, {"size": "1"}, {"size": "672"}, {"size": "28"}]}}}}}, {"name": "StatefulPartitionedCall/model/model016/efficientnetv2-b0/block5e_se_reduce/BiasAdd/ReadVariableOp", "op": "Const", "attr": {"dtype": {"type": "DT_FLOAT"}, "value": {"tensor": {"dtype": "DT_FLOAT", "tensorShape": {"dim": [{"size": "28"}]}}}}}, {"name": "StatefulPartitionedCall/model/model016/efficientnetv2-b0/block5e_se_expand/Conv2D/ReadVariableOp", "op": "Const", "attr": {"value": {"tensor": {"dtype": "DT_FLOAT", "tensorShape": {"dim": [{"size": "1"}, {"size": "1"}, {"size": "28"}, {"size": "672"}]}}}, "dtype": {"type": "DT_FLOAT"}}}, {"name": "StatefulPartitionedCall/model/model016/efficientnetv2-b0/block5e_se_expand/BiasAdd/ReadVariableOp", "op": "Const", "attr": {"value": {"tensor": {"dtype": "DT_FLOAT", "tensorShape": {"dim": [{"size": "672"}]}}}, "dtype": {"type": "DT_FLOAT"}}}, {"name": "StatefulPartitionedCall/model/model016/efficientnetv2-b0/block5d_se_squeeze/Mean/reduction_indices", "op": "Const", "attr": {"dtype": {"type": "DT_INT32"}, "value": {"tensor": {"dtype": "DT_INT32", "tensorShape": {"dim": [{"size": "2"}]}}}}}, {"name": "StatefulPartitionedCall/model/model016/efficientnetv2-b0/block5d_se_reshape/strided_slice/stack", "op": "Const", "attr": {"value": {"tensor": {"dtype": "DT_INT32", "tensorShape": {"dim": [{"size": "1"}]}}}, "dtype": {"type": "DT_INT32"}}}, {"name": "StatefulPartitionedCall/model/model016/efficientnetv2-b0/block5d_se_reshape/strided_slice/stack_1", "op": "Const", "attr": {"dtype": {"type": "DT_INT32"}, "value": {"tensor": {"dtype": "DT_INT32", "tensorShape": {"dim": [{"size": "1"}]}}}}}, {"name": "StatefulPartitionedCall/model/model016/efficientnetv2-b0/block5d_se_reshape/strided_slice/stack_2", "op": "Const", "attr": {"value": {"tensor": {"dtype": "DT_INT32", "tensorShape": {"dim": [{"size": "1"}]}}}, "dtype": {"type": "DT_INT32"}}}, {"name": "StatefulPartitionedCall/model/model016/efficientnetv2-b0/block5d_se_reshape/Reshape/shape/1", "op": "Const", "attr": {"dtype": {"type": "DT_INT32"}, "value": {"tensor": {"dtype": "DT_INT32", "tensorShape": {}}}}}, {"name": "StatefulPartitionedCall/model/model016/efficientnetv2-b0/block5d_se_reshape/Reshape/shape/2", "op": "Const", "attr": {"dtype": {"type": "DT_INT32"}, "value": {"tensor": {"dtype": "DT_INT32", "tensorShape": {}}}}}, {"name": "StatefulPartitionedCall/model/model016/efficientnetv2-b0/block5d_se_reshape/Reshape/shape/3", "op": "Const", "attr": {"dtype": {"type": "DT_INT32"}, "value": {"tensor": {"dtype": "DT_INT32", "tensorShape": {}}}}}, {"name": "StatefulPartitionedCall/model/model016/efficientnetv2-b0/block5d_se_reduce/Conv2D/ReadVariableOp", "op": "Const", "attr": {"dtype": {"type": "DT_FLOAT"}, "value": {"tensor": {"dtype": "DT_FLOAT", "tensorShape": {"dim": [{"size": "1"}, {"size": "1"}, {"size": "672"}, {"size": "28"}]}}}}}, {"name": "StatefulPartitionedCall/model/model016/efficientnetv2-b0/block5d_se_reduce/BiasAdd/ReadVariableOp", "op": "Const", "attr": {"dtype": {"type": "DT_FLOAT"}, "value": {"tensor": {"dtype": "DT_FLOAT", "tensorShape": {"dim": [{"size": "28"}]}}}}}, {"name": "StatefulPartitionedCall/model/model016/efficientnetv2-b0/block5d_se_expand/Conv2D/ReadVariableOp", "op": "Const", "attr": {"dtype": {"type": "DT_FLOAT"}, "value": {"tensor": {"dtype": "DT_FLOAT", "tensorShape": {"dim": [{"size": "1"}, {"size": "1"}, {"size": "28"}, {"size": "672"}]}}}}}, {"name": "StatefulPartitionedCall/model/model016/efficientnetv2-b0/block5d_se_expand/BiasAdd/ReadVariableOp", "op": "Const", "attr": {"dtype": {"type": "DT_FLOAT"}, "value": {"tensor": {"dtype": "DT_FLOAT", "tensorShape": {"dim": [{"size": "672"}]}}}}}, {"name": "StatefulPartitionedCall/model/model016/efficientnetv2-b0/block5c_se_squeeze/Mean/reduction_indices", "op": "Const", "attr": {"value": {"tensor": {"dtype": "DT_INT32", "tensorShape": {"dim": [{"size": "2"}]}}}, "dtype": {"type": "DT_INT32"}}}, {"name": "StatefulPartitionedCall/model/model016/efficientnetv2-b0/block5c_se_reshape/strided_slice/stack", "op": "Const", "attr": {"value": {"tensor": {"dtype": "DT_INT32", "tensorShape": {"dim": [{"size": "1"}]}}}, "dtype": {"type": "DT_INT32"}}}, {"name": "StatefulPartitionedCall/model/model016/efficientnetv2-b0/block5c_se_reshape/strided_slice/stack_1", "op": "Const", "attr": {"dtype": {"type": "DT_INT32"}, "value": {"tensor": {"dtype": "DT_INT32", "tensorShape": {"dim": [{"size": "1"}]}}}}}, {"name": "StatefulPartitionedCall/model/model016/efficientnetv2-b0/block5c_se_reshape/strided_slice/stack_2", "op": "Const", "attr": {"dtype": {"type": "DT_INT32"}, "value": {"tensor": {"dtype": "DT_INT32", "tensorShape": {"dim": [{"size": "1"}]}}}}}, {"name": "StatefulPartitionedCall/model/model016/efficientnetv2-b0/block5c_se_reshape/Reshape/shape/1", "op": "Const", "attr": {"value": {"tensor": {"dtype": "DT_INT32", "tensorShape": {}}}, "dtype": {"type": "DT_INT32"}}}, {"name": "StatefulPartitionedCall/model/model016/efficientnetv2-b0/block5c_se_reshape/Reshape/shape/2", "op": "Const", "attr": {"dtype": {"type": "DT_INT32"}, "value": {"tensor": {"dtype": "DT_INT32", "tensorShape": {}}}}}, {"name": "StatefulPartitionedCall/model/model016/efficientnetv2-b0/block5c_se_reshape/Reshape/shape/3", "op": "Const", "attr": {"value": {"tensor": {"dtype": "DT_INT32", "tensorShape": {}}}, "dtype": {"type": "DT_INT32"}}}, {"name": "StatefulPartitionedCall/model/model016/efficientnetv2-b0/block5c_se_reduce/Conv2D/ReadVariableOp", "op": "Const", "attr": {"dtype": {"type": "DT_FLOAT"}, "value": {"tensor": {"dtype": "DT_FLOAT", "tensorShape": {"dim": [{"size": "1"}, {"size": "1"}, {"size": "672"}, {"size": "28"}]}}}}}, {"name": "StatefulPartitionedCall/model/model016/efficientnetv2-b0/block5c_se_reduce/BiasAdd/ReadVariableOp", "op": "Const", "attr": {"dtype": {"type": "DT_FLOAT"}, "value": {"tensor": {"dtype": "DT_FLOAT", "tensorShape": {"dim": [{"size": "28"}]}}}}}, {"name": "StatefulPartitionedCall/model/model016/efficientnetv2-b0/block5c_se_expand/Conv2D/ReadVariableOp", "op": "Const", "attr": {"dtype": {"type": "DT_FLOAT"}, "value": {"tensor": {"dtype": "DT_FLOAT", "tensorShape": {"dim": [{"size": "1"}, {"size": "1"}, {"size": "28"}, {"size": "672"}]}}}}}, {"name": "StatefulPartitionedCall/model/model016/efficientnetv2-b0/block5c_se_expand/BiasAdd/ReadVariableOp", "op": "Const", "attr": {"dtype": {"type": "DT_FLOAT"}, "value": {"tensor": {"dtype": "DT_FLOAT", "tensorShape": {"dim": [{"size": "672"}]}}}}}, {"name": "StatefulPartitionedCall/model/model016/efficientnetv2-b0/block5b_se_squeeze/Mean/reduction_indices", "op": "Const", "attr": {"dtype": {"type": "DT_INT32"}, "value": {"tensor": {"dtype": "DT_INT32", "tensorShape": {"dim": [{"size": "2"}]}}}}}, {"name": "StatefulPartitionedCall/model/model016/efficientnetv2-b0/block5b_se_reshape/strided_slice/stack", "op": "Const", "attr": {"value": {"tensor": {"dtype": "DT_INT32", "tensorShape": {"dim": [{"size": "1"}]}}}, "dtype": {"type": "DT_INT32"}}}, {"name": "StatefulPartitionedCall/model/model016/efficientnetv2-b0/block5b_se_reshape/strided_slice/stack_1", "op": "Const", "attr": {"dtype": {"type": "DT_INT32"}, "value": {"tensor": {"dtype": "DT_INT32", "tensorShape": {"dim": [{"size": "1"}]}}}}}, {"name": "StatefulPartitionedCall/model/model016/efficientnetv2-b0/block5b_se_reshape/strided_slice/stack_2", "op": "Const", "attr": {"dtype": {"type": "DT_INT32"}, "value": {"tensor": {"dtype": "DT_INT32", "tensorShape": {"dim": [{"size": "1"}]}}}}}, {"name": "StatefulPartitionedCall/model/model016/efficientnetv2-b0/block5b_se_reshape/Reshape/shape/1", "op": "Const", "attr": {"dtype": {"type": "DT_INT32"}, "value": {"tensor": {"dtype": "DT_INT32", "tensorShape": {}}}}}, {"name": "StatefulPartitionedCall/model/model016/efficientnetv2-b0/block5b_se_reshape/Reshape/shape/2", "op": "Const", "attr": {"value": {"tensor": {"dtype": "DT_INT32", "tensorShape": {}}}, "dtype": {"type": "DT_INT32"}}}, {"name": "StatefulPartitionedCall/model/model016/efficientnetv2-b0/block5b_se_reshape/Reshape/shape/3", "op": "Const", "attr": {"dtype": {"type": "DT_INT32"}, "value": {"tensor": {"dtype": "DT_INT32", "tensorShape": {}}}}}, {"name": "StatefulPartitionedCall/model/model016/efficientnetv2-b0/block5b_se_reduce/Conv2D/ReadVariableOp", "op": "Const", "attr": {"dtype": {"type": "DT_FLOAT"}, "value": {"tensor": {"dtype": "DT_FLOAT", "tensorShape": {"dim": [{"size": "1"}, {"size": "1"}, {"size": "672"}, {"size": "28"}]}}}}}, {"name": "StatefulPartitionedCall/model/model016/efficientnetv2-b0/block5b_se_reduce/BiasAdd/ReadVariableOp", "op": "Const", "attr": {"dtype": {"type": "DT_FLOAT"}, "value": {"tensor": {"dtype": "DT_FLOAT", "tensorShape": {"dim": [{"size": "28"}]}}}}}, {"name": "StatefulPartitionedCall/model/model016/efficientnetv2-b0/block5b_se_expand/Conv2D/ReadVariableOp", "op": "Const", "attr": {"dtype": {"type": "DT_FLOAT"}, "value": {"tensor": {"dtype": "DT_FLOAT", "tensorShape": {"dim": [{"size": "1"}, {"size": "1"}, {"size": "28"}, {"size": "672"}]}}}}}, {"name": "StatefulPartitionedCall/model/model016/efficientnetv2-b0/block5b_se_expand/BiasAdd/ReadVariableOp", "op": "Const", "attr": {"dtype": {"type": "DT_FLOAT"}, "value": {"tensor": {"dtype": "DT_FLOAT", "tensorShape": {"dim": [{"size": "672"}]}}}}}, {"name": "StatefulPartitionedCall/model/model016/efficientnetv2-b0/block4c_se_squeeze/Mean/reduction_indices", "op": "Const", "attr": {"value": {"tensor": {"dtype": "DT_INT32", "tensorShape": {"dim": [{"size": "2"}]}}}, "dtype": {"type": "DT_INT32"}}}, {"name": "StatefulPartitionedCall/model/model016/efficientnetv2-b0/block4c_se_reshape/strided_slice/stack", "op": "Const", "attr": {"dtype": {"type": "DT_INT32"}, "value": {"tensor": {"dtype": "DT_INT32", "tensorShape": {"dim": [{"size": "1"}]}}}}}, {"name": "StatefulPartitionedCall/model/model016/efficientnetv2-b0/block4c_se_reshape/strided_slice/stack_1", "op": "Const", "attr": {"dtype": {"type": "DT_INT32"}, "value": {"tensor": {"dtype": "DT_INT32", "tensorShape": {"dim": [{"size": "1"}]}}}}}, {"name": "StatefulPartitionedCall/model/model016/efficientnetv2-b0/block4c_se_reshape/strided_slice/stack_2", "op": "Const", "attr": {"dtype": {"type": "DT_INT32"}, "value": {"tensor": {"dtype": "DT_INT32", "tensorShape": {"dim": [{"size": "1"}]}}}}}, {"name": "StatefulPartitionedCall/model/model016/efficientnetv2-b0/block4c_se_reshape/Reshape/shape/1", "op": "Const", "attr": {"dtype": {"type": "DT_INT32"}, "value": {"tensor": {"dtype": "DT_INT32", "tensorShape": {}}}}}, {"name": "StatefulPartitionedCall/model/model016/efficientnetv2-b0/block4c_se_reshape/Reshape/shape/2", "op": "Const", "attr": {"dtype": {"type": "DT_INT32"}, "value": {"tensor": {"dtype": "DT_INT32", "tensorShape": {}}}}}, {"name": "StatefulPartitionedCall/model/model016/efficientnetv2-b0/block4c_se_reshape/Reshape/shape/3", "op": "Const", "attr": {"value": {"tensor": {"dtype": "DT_INT32", "tensorShape": {}}}, "dtype": {"type": "DT_INT32"}}}, {"name": "StatefulPartitionedCall/model/model016/efficientnetv2-b0/block4c_se_reduce/Conv2D/ReadVariableOp", "op": "Const", "attr": {"value": {"tensor": {"dtype": "DT_FLOAT", "tensorShape": {"dim": [{"size": "1"}, {"size": "1"}, {"size": "384"}, {"size": "24"}]}}}, "dtype": {"type": "DT_FLOAT"}}}, {"name": "StatefulPartitionedCall/model/model016/efficientnetv2-b0/block4c_se_reduce/BiasAdd/ReadVariableOp", "op": "Const", "attr": {"dtype": {"type": "DT_FLOAT"}, "value": {"tensor": {"dtype": "DT_FLOAT", "tensorShape": {"dim": [{"size": "24"}]}}}}}, {"name": "StatefulPartitionedCall/model/model016/efficientnetv2-b0/block4c_se_expand/Conv2D/ReadVariableOp", "op": "Const", "attr": {"dtype": {"type": "DT_FLOAT"}, "value": {"tensor": {"dtype": "DT_FLOAT", "tensorShape": {"dim": [{"size": "1"}, {"size": "1"}, {"size": "24"}, {"size": "384"}]}}}}}, {"name": "StatefulPartitionedCall/model/model016/efficientnetv2-b0/block4c_se_expand/BiasAdd/ReadVariableOp", "op": "Const", "attr": {"value": {"tensor": {"dtype": "DT_FLOAT", "tensorShape": {"dim": [{"size": "384"}]}}}, "dtype": {"type": "DT_FLOAT"}}}, {"name": "StatefulPartitionedCall/model/model016/efficientnetv2-b0/block4b_se_squeeze/Mean/reduction_indices", "op": "Const", "attr": {"dtype": {"type": "DT_INT32"}, "value": {"tensor": {"dtype": "DT_INT32", "tensorShape": {"dim": [{"size": "2"}]}}}}}, {"name": "StatefulPartitionedCall/model/model016/efficientnetv2-b0/block4b_se_reshape/strided_slice/stack", "op": "Const", "attr": {"dtype": {"type": "DT_INT32"}, "value": {"tensor": {"dtype": "DT_INT32", "tensorShape": {"dim": [{"size": "1"}]}}}}}, {"name": "StatefulPartitionedCall/model/model016/efficientnetv2-b0/block4b_se_reshape/strided_slice/stack_1", "op": "Const", "attr": {"dtype": {"type": "DT_INT32"}, "value": {"tensor": {"dtype": "DT_INT32", "tensorShape": {"dim": [{"size": "1"}]}}}}}, {"name": "StatefulPartitionedCall/model/model016/efficientnetv2-b0/block4b_se_reshape/strided_slice/stack_2", "op": "Const", "attr": {"dtype": {"type": "DT_INT32"}, "value": {"tensor": {"dtype": "DT_INT32", "tensorShape": {"dim": [{"size": "1"}]}}}}}, {"name": "StatefulPartitionedCall/model/model016/efficientnetv2-b0/block4b_se_reshape/Reshape/shape/1", "op": "Const", "attr": {"dtype": {"type": "DT_INT32"}, "value": {"tensor": {"dtype": "DT_INT32", "tensorShape": {}}}}}, {"name": "StatefulPartitionedCall/model/model016/efficientnetv2-b0/block4b_se_reshape/Reshape/shape/2", "op": "Const", "attr": {"dtype": {"type": "DT_INT32"}, "value": {"tensor": {"dtype": "DT_INT32", "tensorShape": {}}}}}, {"name": "StatefulPartitionedCall/model/model016/efficientnetv2-b0/block4b_se_reshape/Reshape/shape/3", "op": "Const", "attr": {"dtype": {"type": "DT_INT32"}, "value": {"tensor": {"dtype": "DT_INT32", "tensorShape": {}}}}}, {"name": "StatefulPartitionedCall/model/model016/efficientnetv2-b0/block4b_se_reduce/Conv2D/ReadVariableOp", "op": "Const", "attr": {"dtype": {"type": "DT_FLOAT"}, "value": {"tensor": {"dtype": "DT_FLOAT", "tensorShape": {"dim": [{"size": "1"}, {"size": "1"}, {"size": "384"}, {"size": "24"}]}}}}}, {"name": "StatefulPartitionedCall/model/model016/efficientnetv2-b0/block4b_se_reduce/BiasAdd/ReadVariableOp", "op": "Const", "attr": {"dtype": {"type": "DT_FLOAT"}, "value": {"tensor": {"dtype": "DT_FLOAT", "tensorShape": {"dim": [{"size": "24"}]}}}}}, {"name": "StatefulPartitionedCall/model/model016/efficientnetv2-b0/block4b_se_expand/Conv2D/ReadVariableOp", "op": "Const", "attr": {"value": {"tensor": {"dtype": "DT_FLOAT", "tensorShape": {"dim": [{"size": "1"}, {"size": "1"}, {"size": "24"}, {"size": "384"}]}}}, "dtype": {"type": "DT_FLOAT"}}}, {"name": "StatefulPartitionedCall/model/model016/efficientnetv2-b0/block4b_se_expand/BiasAdd/ReadVariableOp", "op": "Const", "attr": {"dtype": {"type": "DT_FLOAT"}, "value": {"tensor": {"dtype": "DT_FLOAT", "tensorShape": {"dim": [{"size": "384"}]}}}}}, {"name": "StatefulPartitionedCall/model/resizing/resize/size", "op": "Const", "attr": {"value": {"tensor": {"dtype": "DT_INT32", "tensorShape": {"dim": [{"size": "2"}]}}}, "dtype": {"type": "DT_INT32"}}}, {"name": "StatefulPartitionedCall/model/model016/efficientnetv2-b0/rescaling/Cast/x", "op": "Const", "attr": {"dtype": {"type": "DT_FLOAT"}, "value": {"tensor": {"dtype": "DT_FLOAT", "tensorShape": {}}}}}, {"name": "unknown_539", "op": "Const", "attr": {"value": {"tensor": {"dtype": "DT_FLOAT", "tensorShape": {"dim": [{"size": "1"}, {"size": "1"}, {"size": "1"}, {"size": "3"}]}}}, "dtype": {"type": "DT_FLOAT"}}}, {"name": "ConstantFolding/StatefulPartitionedCall/model/model016/efficientnetv2-b0/normalization/truediv_recip", "op": "Const", "attr": {"dtype": {"type": "DT_FLOAT"}, "value": {"tensor": {"dtype": "DT_FLOAT", "tensorShape": {"dim": [{"size": "1"}, {"size": "1"}, {"size": "1"}, {"size": "3"}]}}}}}, {"name": "StatefulPartitionedCall/model/model016/efficientnetv2-b0/block4a_se_squeeze/Mean/reduction_indices", "op": "Const", "attr": {"value": {"tensor": {"dtype": "DT_INT32", "tensorShape": {"dim": [{"size": "2"}]}}}, "dtype": {"type": "DT_INT32"}}}, {"name": "StatefulPartitionedCall/model/model016/efficientnetv2-b0/block4a_se_reshape/strided_slice/stack", "op": "Const", "attr": {"value": {"tensor": {"dtype": "DT_INT32", "tensorShape": {"dim": [{"size": "1"}]}}}, "dtype": {"type": "DT_INT32"}}}, {"name": "StatefulPartitionedCall/model/model016/efficientnetv2-b0/block4a_se_reshape/strided_slice/stack_1", "op": "Const", "attr": {"dtype": {"type": "DT_INT32"}, "value": {"tensor": {"dtype": "DT_INT32", "tensorShape": {"dim": [{"size": "1"}]}}}}}, {"name": "StatefulPartitionedCall/model/model016/efficientnetv2-b0/block4a_se_reshape/strided_slice/stack_2", "op": "Const", "attr": {"dtype": {"type": "DT_INT32"}, "value": {"tensor": {"dtype": "DT_INT32", "tensorShape": {"dim": [{"size": "1"}]}}}}}, {"name": "StatefulPartitionedCall/model/model016/efficientnetv2-b0/block4a_se_reshape/Reshape/shape/1", "op": "Const", "attr": {"dtype": {"type": "DT_INT32"}, "value": {"tensor": {"dtype": "DT_INT32", "tensorShape": {}}}}}, {"name": "StatefulPartitionedCall/model/model016/efficientnetv2-b0/block4a_se_reshape/Reshape/shape/2", "op": "Const", "attr": {"dtype": {"type": "DT_INT32"}, "value": {"tensor": {"dtype": "DT_INT32", "tensorShape": {}}}}}, {"name": "StatefulPartitionedCall/model/model016/efficientnetv2-b0/block4a_se_reshape/Reshape/shape/3", "op": "Const", "attr": {"value": {"tensor": {"dtype": "DT_INT32", "tensorShape": {}}}, "dtype": {"type": "DT_INT32"}}}, {"name": "StatefulPartitionedCall/model/model016/efficientnetv2-b0/block4a_se_reduce/Conv2D/ReadVariableOp", "op": "Const", "attr": {"value": {"tensor": {"dtype": "DT_FLOAT", "tensorShape": {"dim": [{"size": "1"}, {"size": "1"}, {"size": "192"}, {"size": "12"}]}}}, "dtype": {"type": "DT_FLOAT"}}}, {"name": "StatefulPartitionedCall/model/model016/efficientnetv2-b0/block4a_se_reduce/BiasAdd/ReadVariableOp", "op": "Const", "attr": {"dtype": {"type": "DT_FLOAT"}, "value": {"tensor": {"dtype": "DT_FLOAT", "tensorShape": {"dim": [{"size": "12"}]}}}}}, {"name": "StatefulPartitionedCall/model/model016/efficientnetv2-b0/block4a_se_expand/Conv2D/ReadVariableOp", "op": "Const", "attr": {"value": {"tensor": {"dtype": "DT_FLOAT", "tensorShape": {"dim": [{"size": "1"}, {"size": "1"}, {"size": "12"}, {"size": "192"}]}}}, "dtype": {"type": "DT_FLOAT"}}}, {"name": "StatefulPartitionedCall/model/model016/efficientnetv2-b0/block4a_se_expand/BiasAdd/ReadVariableOp", "op": "Const", "attr": {"dtype": {"type": "DT_FLOAT"}, "value": {"tensor": {"dtype": "DT_FLOAT", "tensorShape": {"dim": [{"size": "192"}]}}}}}, {"name": "StatefulPartitionedCall/model/model016/efficientnetv2-b0/block5a_se_squeeze/Mean/reduction_indices", "op": "Const", "attr": {"value": {"tensor": {"dtype": "DT_INT32", "tensorShape": {"dim": [{"size": "2"}]}}}, "dtype": {"type": "DT_INT32"}}}, {"name": "StatefulPartitionedCall/model/model016/efficientnetv2-b0/block5a_se_reshape/strided_slice/stack", "op": "Const", "attr": {"dtype": {"type": "DT_INT32"}, "value": {"tensor": {"dtype": "DT_INT32", "tensorShape": {"dim": [{"size": "1"}]}}}}}, {"name": "StatefulPartitionedCall/model/model016/efficientnetv2-b0/block5a_se_reshape/strided_slice/stack_1", "op": "Const", "attr": {"dtype": {"type": "DT_INT32"}, "value": {"tensor": {"dtype": "DT_INT32", "tensorShape": {"dim": [{"size": "1"}]}}}}}, {"name": "StatefulPartitionedCall/model/model016/efficientnetv2-b0/block5a_se_reshape/strided_slice/stack_2", "op": "Const", "attr": {"dtype": {"type": "DT_INT32"}, "value": {"tensor": {"dtype": "DT_INT32", "tensorShape": {"dim": [{"size": "1"}]}}}}}, {"name": "StatefulPartitionedCall/model/model016/efficientnetv2-b0/block5a_se_reshape/Reshape/shape/1", "op": "Const", "attr": {"value": {"tensor": {"dtype": "DT_INT32", "tensorShape": {}}}, "dtype": {"type": "DT_INT32"}}}, {"name": "StatefulPartitionedCall/model/model016/efficientnetv2-b0/block5a_se_reshape/Reshape/shape/2", "op": "Const", "attr": {"dtype": {"type": "DT_INT32"}, "value": {"tensor": {"dtype": "DT_INT32", "tensorShape": {}}}}}, {"name": "StatefulPartitionedCall/model/model016/efficientnetv2-b0/block5a_se_reshape/Reshape/shape/3", "op": "Const", "attr": {"dtype": {"type": "DT_INT32"}, "value": {"tensor": {"dtype": "DT_INT32", "tensorShape": {}}}}}, {"name": "StatefulPartitionedCall/model/model016/efficientnetv2-b0/block5a_se_reduce/Conv2D/ReadVariableOp", "op": "Const", "attr": {"value": {"tensor": {"dtype": "DT_FLOAT", "tensorShape": {"dim": [{"size": "1"}, {"size": "1"}, {"size": "576"}, {"size": "24"}]}}}, "dtype": {"type": "DT_FLOAT"}}}, {"name": "StatefulPartitionedCall/model/model016/efficientnetv2-b0/block5a_se_reduce/BiasAdd/ReadVariableOp", "op": "Const", "attr": {"value": {"tensor": {"dtype": "DT_FLOAT", "tensorShape": {"dim": [{"size": "24"}]}}}, "dtype": {"type": "DT_FLOAT"}}}, {"name": "StatefulPartitionedCall/model/model016/efficientnetv2-b0/block5a_se_expand/Conv2D/ReadVariableOp", "op": "Const", "attr": {"dtype": {"type": "DT_FLOAT"}, "value": {"tensor": {"dtype": "DT_FLOAT", "tensorShape": {"dim": [{"size": "1"}, {"size": "1"}, {"size": "24"}, {"size": "576"}]}}}}}, {"name": "StatefulPartitionedCall/model/model016/efficientnetv2-b0/block5a_se_expand/BiasAdd/ReadVariableOp", "op": "Const", "attr": {"dtype": {"type": "DT_FLOAT"}, "value": {"tensor": {"dtype": "DT_FLOAT", "tensorShape": {"dim": [{"size": "576"}]}}}}}, {"name": "StatefulPartitionedCall/model/model016/efficientnetv2-b0/block6a_se_squeeze/Mean/reduction_indices", "op": "Const", "attr": {"dtype": {"type": "DT_INT32"}, "value": {"tensor": {"dtype": "DT_INT32", "tensorShape": {"dim": [{"size": "2"}]}}}}}, {"name": "StatefulPartitionedCall/model/model016/efficientnetv2-b0/block6a_se_reshape/strided_slice/stack", "op": "Const", "attr": {"dtype": {"type": "DT_INT32"}, "value": {"tensor": {"dtype": "DT_INT32", "tensorShape": {"dim": [{"size": "1"}]}}}}}, {"name": "StatefulPartitionedCall/model/model016/efficientnetv2-b0/block6a_se_reshape/strided_slice/stack_1", "op": "Const", "attr": {"value": {"tensor": {"dtype": "DT_INT32", "tensorShape": {"dim": [{"size": "1"}]}}}, "dtype": {"type": "DT_INT32"}}}, {"name": "StatefulPartitionedCall/model/model016/efficientnetv2-b0/block6a_se_reshape/strided_slice/stack_2", "op": "Const", "attr": {"dtype": {"type": "DT_INT32"}, "value": {"tensor": {"dtype": "DT_INT32", "tensorShape": {"dim": [{"size": "1"}]}}}}}, {"name": "StatefulPartitionedCall/model/model016/efficientnetv2-b0/block6a_se_reshape/Reshape/shape/1", "op": "Const", "attr": {"dtype": {"type": "DT_INT32"}, "value": {"tensor": {"dtype": "DT_INT32", "tensorShape": {}}}}}, {"name": "StatefulPartitionedCall/model/model016/efficientnetv2-b0/block6a_se_reshape/Reshape/shape/2", "op": "Const", "attr": {"dtype": {"type": "DT_INT32"}, "value": {"tensor": {"dtype": "DT_INT32", "tensorShape": {}}}}}, {"name": "StatefulPartitionedCall/model/model016/efficientnetv2-b0/block6a_se_reshape/Reshape/shape/3", "op": "Const", "attr": {"dtype": {"type": "DT_INT32"}, "value": {"tensor": {"dtype": "DT_INT32", "tensorShape": {}}}}}, {"name": "StatefulPartitionedCall/model/model016/efficientnetv2-b0/block6a_se_reduce/Conv2D/ReadVariableOp", "op": "Const", "attr": {"dtype": {"type": "DT_FLOAT"}, "value": {"tensor": {"dtype": "DT_FLOAT", "tensorShape": {"dim": [{"size": "1"}, {"size": "1"}, {"size": "672"}, {"size": "28"}]}}}}}, {"name": "StatefulPartitionedCall/model/model016/efficientnetv2-b0/block6a_se_reduce/BiasAdd/ReadVariableOp", "op": "Const", "attr": {"dtype": {"type": "DT_FLOAT"}, "value": {"tensor": {"dtype": "DT_FLOAT", "tensorShape": {"dim": [{"size": "28"}]}}}}}, {"name": "StatefulPartitionedCall/model/model016/efficientnetv2-b0/block6a_se_expand/Conv2D/ReadVariableOp", "op": "Const", "attr": {"value": {"tensor": {"dtype": "DT_FLOAT", "tensorShape": {"dim": [{"size": "1"}, {"size": "1"}, {"size": "28"}, {"size": "672"}]}}}, "dtype": {"type": "DT_FLOAT"}}}, {"name": "StatefulPartitionedCall/model/model016/efficientnetv2-b0/block6a_se_expand/BiasAdd/ReadVariableOp", "op": "Const", "attr": {"dtype": {"type": "DT_FLOAT"}, "value": {"tensor": {"dtype": "DT_FLOAT", "tensorShape": {"dim": [{"size": "672"}]}}}}}, {"name": "StatefulPartitionedCall/model/model016/global_average_pooling2d/Mean/reduction_indices", "op": "Const", "attr": {"dtype": {"type": "DT_INT32"}, "value": {"tensor": {"dtype": "DT_INT32", "tensorShape": {"dim": [{"size": "2"}]}}}}}, {"name": "StatefulPartitionedCall/model/model016/dense/MatMul/ReadVariableOp", "op": "Const", "attr": {"dtype": {"type": "DT_FLOAT"}, "value": {"tensor": {"dtype": "DT_FLOAT", "tensorShape": {"dim": [{"size": "1280"}, {"size": "400"}]}}}}}, {"name": "StatefulPartitionedCall/model/model016/dense/BiasAdd/ReadVariableOp", "op": "Const", "attr": {"value": {"tensor": {"dtype": "DT_FLOAT", "tensorShape": {"dim": [{"size": "400"}]}}}, "dtype": {"type": "DT_FLOAT"}}}, {"name": "StatefulPartitionedCall/model/model021/efficientnetv2-b1/block6i_se_squeeze/Mean/reduction_indices", "op": "Const", "attr": {"value": {"tensor": {"dtype": "DT_INT32", "tensorShape": {"dim": [{"size": "2"}]}}}, "dtype": {"type": "DT_INT32"}}}, {"name": "StatefulPartitionedCall/model/model021/efficientnetv2-b1/block6i_se_reshape/strided_slice/stack", "op": "Const", "attr": {"value": {"tensor": {"dtype": "DT_INT32", "tensorShape": {"dim": [{"size": "1"}]}}}, "dtype": {"type": "DT_INT32"}}}, {"name": "StatefulPartitionedCall/model/model021/efficientnetv2-b1/block6i_se_reshape/strided_slice/stack_1", "op": "Const", "attr": {"dtype": {"type": "DT_INT32"}, "value": {"tensor": {"dtype": "DT_INT32", "tensorShape": {"dim": [{"size": "1"}]}}}}}, {"name": "StatefulPartitionedCall/model/model021/efficientnetv2-b1/block6i_se_reshape/strided_slice/stack_2", "op": "Const", "attr": {"value": {"tensor": {"dtype": "DT_INT32", "tensorShape": {"dim": [{"size": "1"}]}}}, "dtype": {"type": "DT_INT32"}}}, {"name": "StatefulPartitionedCall/model/model021/efficientnetv2-b1/block6i_se_reshape/Reshape/shape/1", "op": "Const", "attr": {"dtype": {"type": "DT_INT32"}, "value": {"tensor": {"dtype": "DT_INT32", "tensorShape": {}}}}}, {"name": "StatefulPartitionedCall/model/model021/efficientnetv2-b1/block6i_se_reshape/Reshape/shape/2", "op": "Const", "attr": {"dtype": {"type": "DT_INT32"}, "value": {"tensor": {"dtype": "DT_INT32", "tensorShape": {}}}}}, {"name": "StatefulPartitionedCall/model/model021/efficientnetv2-b1/block6i_se_reshape/Reshape/shape/3", "op": "Const", "attr": {"dtype": {"type": "DT_INT32"}, "value": {"tensor": {"dtype": "DT_INT32", "tensorShape": {}}}}}, {"name": "StatefulPartitionedCall/model/model021/efficientnetv2-b1/block6i_se_reduce/Conv2D/ReadVariableOp", "op": "Const", "attr": {"dtype": {"type": "DT_FLOAT"}, "value": {"tensor": {"dtype": "DT_FLOAT", "tensorShape": {"dim": [{"size": "1"}, {"size": "1"}, {"size": "1152"}, {"size": "48"}]}}}}}, {"name": "StatefulPartitionedCall/model/model021/efficientnetv2-b1/block6i_se_reduce/BiasAdd/ReadVariableOp", "op": "Const", "attr": {"value": {"tensor": {"dtype": "DT_FLOAT", "tensorShape": {"dim": [{"size": "48"}]}}}, "dtype": {"type": "DT_FLOAT"}}}, {"name": "StatefulPartitionedCall/model/model021/efficientnetv2-b1/block6i_se_expand/Conv2D/ReadVariableOp", "op": "Const", "attr": {"value": {"tensor": {"dtype": "DT_FLOAT", "tensorShape": {"dim": [{"size": "1"}, {"size": "1"}, {"size": "48"}, {"size": "1152"}]}}}, "dtype": {"type": "DT_FLOAT"}}}, {"name": "StatefulPartitionedCall/model/model021/efficientnetv2-b1/block6i_se_expand/BiasAdd/ReadVariableOp", "op": "Const", "attr": {"dtype": {"type": "DT_FLOAT"}, "value": {"tensor": {"dtype": "DT_FLOAT", "tensorShape": {"dim": [{"size": "1152"}]}}}}}, {"name": "StatefulPartitionedCall/model/model021/efficientnetv2-b1/block6h_se_squeeze/Mean/reduction_indices", "op": "Const", "attr": {"value": {"tensor": {"dtype": "DT_INT32", "tensorShape": {"dim": [{"size": "2"}]}}}, "dtype": {"type": "DT_INT32"}}}, {"name": "StatefulPartitionedCall/model/model021/efficientnetv2-b1/block6h_se_reshape/strided_slice/stack", "op": "Const", "attr": {"value": {"tensor": {"dtype": "DT_INT32", "tensorShape": {"dim": [{"size": "1"}]}}}, "dtype": {"type": "DT_INT32"}}}, {"name": "StatefulPartitionedCall/model/model021/efficientnetv2-b1/block6h_se_reshape/strided_slice/stack_1", "op": "Const", "attr": {"dtype": {"type": "DT_INT32"}, "value": {"tensor": {"dtype": "DT_INT32", "tensorShape": {"dim": [{"size": "1"}]}}}}}, {"name": "StatefulPartitionedCall/model/model021/efficientnetv2-b1/block6h_se_reshape/strided_slice/stack_2", "op": "Const", "attr": {"value": {"tensor": {"dtype": "DT_INT32", "tensorShape": {"dim": [{"size": "1"}]}}}, "dtype": {"type": "DT_INT32"}}}, {"name": "StatefulPartitionedCall/model/model021/efficientnetv2-b1/block6h_se_reshape/Reshape/shape/1", "op": "Const", "attr": {"dtype": {"type": "DT_INT32"}, "value": {"tensor": {"dtype": "DT_INT32", "tensorShape": {}}}}}, {"name": "StatefulPartitionedCall/model/model021/efficientnetv2-b1/block6h_se_reshape/Reshape/shape/2", "op": "Const", "attr": {"dtype": {"type": "DT_INT32"}, "value": {"tensor": {"dtype": "DT_INT32", "tensorShape": {}}}}}, {"name": "StatefulPartitionedCall/model/model021/efficientnetv2-b1/block6h_se_reshape/Reshape/shape/3", "op": "Const", "attr": {"dtype": {"type": "DT_INT32"}, "value": {"tensor": {"dtype": "DT_INT32", "tensorShape": {}}}}}, {"name": "StatefulPartitionedCall/model/model021/efficientnetv2-b1/block6h_se_reduce/Conv2D/ReadVariableOp", "op": "Const", "attr": {"value": {"tensor": {"dtype": "DT_FLOAT", "tensorShape": {"dim": [{"size": "1"}, {"size": "1"}, {"size": "1152"}, {"size": "48"}]}}}, "dtype": {"type": "DT_FLOAT"}}}, {"name": "StatefulPartitionedCall/model/model021/efficientnetv2-b1/block6h_se_reduce/BiasAdd/ReadVariableOp", "op": "Const", "attr": {"dtype": {"type": "DT_FLOAT"}, "value": {"tensor": {"dtype": "DT_FLOAT", "tensorShape": {"dim": [{"size": "48"}]}}}}}, {"name": "StatefulPartitionedCall/model/model021/efficientnetv2-b1/block6h_se_expand/Conv2D/ReadVariableOp", "op": "Const", "attr": {"dtype": {"type": "DT_FLOAT"}, "value": {"tensor": {"dtype": "DT_FLOAT", "tensorShape": {"dim": [{"size": "1"}, {"size": "1"}, {"size": "48"}, {"size": "1152"}]}}}}}, {"name": "StatefulPartitionedCall/model/model021/efficientnetv2-b1/block6h_se_expand/BiasAdd/ReadVariableOp", "op": "Const", "attr": {"dtype": {"type": "DT_FLOAT"}, "value": {"tensor": {"dtype": "DT_FLOAT", "tensorShape": {"dim": [{"size": "1152"}]}}}}}, {"name": "StatefulPartitionedCall/model/model021/efficientnetv2-b1/block6g_se_squeeze/Mean/reduction_indices", "op": "Const", "attr": {"dtype": {"type": "DT_INT32"}, "value": {"tensor": {"dtype": "DT_INT32", "tensorShape": {"dim": [{"size": "2"}]}}}}}, {"name": "StatefulPartitionedCall/model/model021/efficientnetv2-b1/block6g_se_reshape/strided_slice/stack", "op": "Const", "attr": {"dtype": {"type": "DT_INT32"}, "value": {"tensor": {"dtype": "DT_INT32", "tensorShape": {"dim": [{"size": "1"}]}}}}}, {"name": "StatefulPartitionedCall/model/model021/efficientnetv2-b1/block6g_se_reshape/strided_slice/stack_1", "op": "Const", "attr": {"dtype": {"type": "DT_INT32"}, "value": {"tensor": {"dtype": "DT_INT32", "tensorShape": {"dim": [{"size": "1"}]}}}}}, {"name": "StatefulPartitionedCall/model/model021/efficientnetv2-b1/block6g_se_reshape/strided_slice/stack_2", "op": "Const", "attr": {"dtype": {"type": "DT_INT32"}, "value": {"tensor": {"dtype": "DT_INT32", "tensorShape": {"dim": [{"size": "1"}]}}}}}, {"name": "StatefulPartitionedCall/model/model021/efficientnetv2-b1/block6g_se_reshape/Reshape/shape/1", "op": "Const", "attr": {"dtype": {"type": "DT_INT32"}, "value": {"tensor": {"dtype": "DT_INT32", "tensorShape": {}}}}}, {"name": "StatefulPartitionedCall/model/model021/efficientnetv2-b1/block6g_se_reshape/Reshape/shape/2", "op": "Const", "attr": {"value": {"tensor": {"dtype": "DT_INT32", "tensorShape": {}}}, "dtype": {"type": "DT_INT32"}}}, {"name": "StatefulPartitionedCall/model/model021/efficientnetv2-b1/block6g_se_reshape/Reshape/shape/3", "op": "Const", "attr": {"dtype": {"type": "DT_INT32"}, "value": {"tensor": {"dtype": "DT_INT32", "tensorShape": {}}}}}, {"name": "StatefulPartitionedCall/model/model021/efficientnetv2-b1/block6g_se_reduce/Conv2D/ReadVariableOp", "op": "Const", "attr": {"dtype": {"type": "DT_FLOAT"}, "value": {"tensor": {"dtype": "DT_FLOAT", "tensorShape": {"dim": [{"size": "1"}, {"size": "1"}, {"size": "1152"}, {"size": "48"}]}}}}}, {"name": "StatefulPartitionedCall/model/model021/efficientnetv2-b1/block6g_se_reduce/BiasAdd/ReadVariableOp", "op": "Const", "attr": {"dtype": {"type": "DT_FLOAT"}, "value": {"tensor": {"dtype": "DT_FLOAT", "tensorShape": {"dim": [{"size": "48"}]}}}}}, {"name": "StatefulPartitionedCall/model/model021/efficientnetv2-b1/block6g_se_expand/Conv2D/ReadVariableOp", "op": "Const", "attr": {"dtype": {"type": "DT_FLOAT"}, "value": {"tensor": {"dtype": "DT_FLOAT", "tensorShape": {"dim": [{"size": "1"}, {"size": "1"}, {"size": "48"}, {"size": "1152"}]}}}}}, {"name": "StatefulPartitionedCall/model/model021/efficientnetv2-b1/block6g_se_expand/BiasAdd/ReadVariableOp", "op": "Const", "attr": {"value": {"tensor": {"dtype": "DT_FLOAT", "tensorShape": {"dim": [{"size": "1152"}]}}}, "dtype": {"type": "DT_FLOAT"}}}, {"name": "StatefulPartitionedCall/model/model021/efficientnetv2-b1/block6f_se_squeeze/Mean/reduction_indices", "op": "Const", "attr": {"value": {"tensor": {"dtype": "DT_INT32", "tensorShape": {"dim": [{"size": "2"}]}}}, "dtype": {"type": "DT_INT32"}}}, {"name": "StatefulPartitionedCall/model/model021/efficientnetv2-b1/block6f_se_reshape/strided_slice/stack", "op": "Const", "attr": {"value": {"tensor": {"dtype": "DT_INT32", "tensorShape": {"dim": [{"size": "1"}]}}}, "dtype": {"type": "DT_INT32"}}}, {"name": "StatefulPartitionedCall/model/model021/efficientnetv2-b1/block6f_se_reshape/strided_slice/stack_1", "op": "Const", "attr": {"dtype": {"type": "DT_INT32"}, "value": {"tensor": {"dtype": "DT_INT32", "tensorShape": {"dim": [{"size": "1"}]}}}}}, {"name": "StatefulPartitionedCall/model/model021/efficientnetv2-b1/block6f_se_reshape/strided_slice/stack_2", "op": "Const", "attr": {"dtype": {"type": "DT_INT32"}, "value": {"tensor": {"dtype": "DT_INT32", "tensorShape": {"dim": [{"size": "1"}]}}}}}, {"name": "StatefulPartitionedCall/model/model021/efficientnetv2-b1/block6f_se_reshape/Reshape/shape/1", "op": "Const", "attr": {"value": {"tensor": {"dtype": "DT_INT32", "tensorShape": {}}}, "dtype": {"type": "DT_INT32"}}}, {"name": "StatefulPartitionedCall/model/model021/efficientnetv2-b1/block6f_se_reshape/Reshape/shape/2", "op": "Const", "attr": {"dtype": {"type": "DT_INT32"}, "value": {"tensor": {"dtype": "DT_INT32", "tensorShape": {}}}}}, {"name": "StatefulPartitionedCall/model/model021/efficientnetv2-b1/block6f_se_reshape/Reshape/shape/3", "op": "Const", "attr": {"value": {"tensor": {"dtype": "DT_INT32", "tensorShape": {}}}, "dtype": {"type": "DT_INT32"}}}, {"name": "StatefulPartitionedCall/model/model021/efficientnetv2-b1/block6f_se_reduce/Conv2D/ReadVariableOp", "op": "Const", "attr": {"dtype": {"type": "DT_FLOAT"}, "value": {"tensor": {"dtype": "DT_FLOAT", "tensorShape": {"dim": [{"size": "1"}, {"size": "1"}, {"size": "1152"}, {"size": "48"}]}}}}}, {"name": "StatefulPartitionedCall/model/model021/efficientnetv2-b1/block6f_se_reduce/BiasAdd/ReadVariableOp", "op": "Const", "attr": {"value": {"tensor": {"dtype": "DT_FLOAT", "tensorShape": {"dim": [{"size": "48"}]}}}, "dtype": {"type": "DT_FLOAT"}}}, {"name": "StatefulPartitionedCall/model/model021/efficientnetv2-b1/block6f_se_expand/Conv2D/ReadVariableOp", "op": "Const", "attr": {"dtype": {"type": "DT_FLOAT"}, "value": {"tensor": {"dtype": "DT_FLOAT", "tensorShape": {"dim": [{"size": "1"}, {"size": "1"}, {"size": "48"}, {"size": "1152"}]}}}}}, {"name": "StatefulPartitionedCall/model/model021/efficientnetv2-b1/block6f_se_expand/BiasAdd/ReadVariableOp", "op": "Const", "attr": {"dtype": {"type": "DT_FLOAT"}, "value": {"tensor": {"dtype": "DT_FLOAT", "tensorShape": {"dim": [{"size": "1152"}]}}}}}, {"name": "StatefulPartitionedCall/model/model021/efficientnetv2-b1/block6e_se_squeeze/Mean/reduction_indices", "op": "Const", "attr": {"value": {"tensor": {"dtype": "DT_INT32", "tensorShape": {"dim": [{"size": "2"}]}}}, "dtype": {"type": "DT_INT32"}}}, {"name": "StatefulPartitionedCall/model/model021/efficientnetv2-b1/block6e_se_reshape/strided_slice/stack", "op": "Const", "attr": {"dtype": {"type": "DT_INT32"}, "value": {"tensor": {"dtype": "DT_INT32", "tensorShape": {"dim": [{"size": "1"}]}}}}}, {"name": "StatefulPartitionedCall/model/model021/efficientnetv2-b1/block6e_se_reshape/strided_slice/stack_1", "op": "Const", "attr": {"dtype": {"type": "DT_INT32"}, "value": {"tensor": {"dtype": "DT_INT32", "tensorShape": {"dim": [{"size": "1"}]}}}}}, {"name": "StatefulPartitionedCall/model/model021/efficientnetv2-b1/block6e_se_reshape/strided_slice/stack_2", "op": "Const", "attr": {"dtype": {"type": "DT_INT32"}, "value": {"tensor": {"dtype": "DT_INT32", "tensorShape": {"dim": [{"size": "1"}]}}}}}, {"name": "StatefulPartitionedCall/model/model021/efficientnetv2-b1/block6e_se_reshape/Reshape/shape/1", "op": "Const", "attr": {"dtype": {"type": "DT_INT32"}, "value": {"tensor": {"dtype": "DT_INT32", "tensorShape": {}}}}}, {"name": "StatefulPartitionedCall/model/model021/efficientnetv2-b1/block6e_se_reshape/Reshape/shape/2", "op": "Const", "attr": {"dtype": {"type": "DT_INT32"}, "value": {"tensor": {"dtype": "DT_INT32", "tensorShape": {}}}}}, {"name": "StatefulPartitionedCall/model/model021/efficientnetv2-b1/block6e_se_reshape/Reshape/shape/3", "op": "Const", "attr": {"dtype": {"type": "DT_INT32"}, "value": {"tensor": {"dtype": "DT_INT32", "tensorShape": {}}}}}, {"name": "StatefulPartitionedCall/model/model021/efficientnetv2-b1/block6e_se_reduce/Conv2D/ReadVariableOp", "op": "Const", "attr": {"dtype": {"type": "DT_FLOAT"}, "value": {"tensor": {"dtype": "DT_FLOAT", "tensorShape": {"dim": [{"size": "1"}, {"size": "1"}, {"size": "1152"}, {"size": "48"}]}}}}}, {"name": "StatefulPartitionedCall/model/model021/efficientnetv2-b1/block6e_se_reduce/BiasAdd/ReadVariableOp", "op": "Const", "attr": {"dtype": {"type": "DT_FLOAT"}, "value": {"tensor": {"dtype": "DT_FLOAT", "tensorShape": {"dim": [{"size": "48"}]}}}}}, {"name": "StatefulPartitionedCall/model/model021/efficientnetv2-b1/block6e_se_expand/Conv2D/ReadVariableOp", "op": "Const", "attr": {"value": {"tensor": {"dtype": "DT_FLOAT", "tensorShape": {"dim": [{"size": "1"}, {"size": "1"}, {"size": "48"}, {"size": "1152"}]}}}, "dtype": {"type": "DT_FLOAT"}}}, {"name": "StatefulPartitionedCall/model/model021/efficientnetv2-b1/block6e_se_expand/BiasAdd/ReadVariableOp", "op": "Const", "attr": {"dtype": {"type": "DT_FLOAT"}, "value": {"tensor": {"dtype": "DT_FLOAT", "tensorShape": {"dim": [{"size": "1152"}]}}}}}, {"name": "StatefulPartitionedCall/model/model021/efficientnetv2-b1/block6d_se_squeeze/Mean/reduction_indices", "op": "Const", "attr": {"dtype": {"type": "DT_INT32"}, "value": {"tensor": {"dtype": "DT_INT32", "tensorShape": {"dim": [{"size": "2"}]}}}}}, {"name": "StatefulPartitionedCall/model/model021/efficientnetv2-b1/block6d_se_reshape/strided_slice/stack", "op": "Const", "attr": {"value": {"tensor": {"dtype": "DT_INT32", "tensorShape": {"dim": [{"size": "1"}]}}}, "dtype": {"type": "DT_INT32"}}}, {"name": "StatefulPartitionedCall/model/model021/efficientnetv2-b1/block6d_se_reshape/strided_slice/stack_1", "op": "Const", "attr": {"dtype": {"type": "DT_INT32"}, "value": {"tensor": {"dtype": "DT_INT32", "tensorShape": {"dim": [{"size": "1"}]}}}}}, {"name": "StatefulPartitionedCall/model/model021/efficientnetv2-b1/block6d_se_reshape/strided_slice/stack_2", "op": "Const", "attr": {"value": {"tensor": {"dtype": "DT_INT32", "tensorShape": {"dim": [{"size": "1"}]}}}, "dtype": {"type": "DT_INT32"}}}, {"name": "StatefulPartitionedCall/model/model021/efficientnetv2-b1/block6d_se_reshape/Reshape/shape/1", "op": "Const", "attr": {"dtype": {"type": "DT_INT32"}, "value": {"tensor": {"dtype": "DT_INT32", "tensorShape": {}}}}}, {"name": "StatefulPartitionedCall/model/model021/efficientnetv2-b1/block6d_se_reshape/Reshape/shape/2", "op": "Const", "attr": {"value": {"tensor": {"dtype": "DT_INT32", "tensorShape": {}}}, "dtype": {"type": "DT_INT32"}}}, {"name": "StatefulPartitionedCall/model/model021/efficientnetv2-b1/block6d_se_reshape/Reshape/shape/3", "op": "Const", "attr": {"dtype": {"type": "DT_INT32"}, "value": {"tensor": {"dtype": "DT_INT32", "tensorShape": {}}}}}, {"name": "StatefulPartitionedCall/model/model021/efficientnetv2-b1/block6d_se_reduce/Conv2D/ReadVariableOp", "op": "Const", "attr": {"dtype": {"type": "DT_FLOAT"}, "value": {"tensor": {"dtype": "DT_FLOAT", "tensorShape": {"dim": [{"size": "1"}, {"size": "1"}, {"size": "1152"}, {"size": "48"}]}}}}}, {"name": "StatefulPartitionedCall/model/model021/efficientnetv2-b1/block6d_se_reduce/BiasAdd/ReadVariableOp", "op": "Const", "attr": {"dtype": {"type": "DT_FLOAT"}, "value": {"tensor": {"dtype": "DT_FLOAT", "tensorShape": {"dim": [{"size": "48"}]}}}}}, {"name": "StatefulPartitionedCall/model/model021/efficientnetv2-b1/block6d_se_expand/Conv2D/ReadVariableOp", "op": "Const", "attr": {"dtype": {"type": "DT_FLOAT"}, "value": {"tensor": {"dtype": "DT_FLOAT", "tensorShape": {"dim": [{"size": "1"}, {"size": "1"}, {"size": "48"}, {"size": "1152"}]}}}}}, {"name": "StatefulPartitionedCall/model/model021/efficientnetv2-b1/block6d_se_expand/BiasAdd/ReadVariableOp", "op": "Const", "attr": {"value": {"tensor": {"dtype": "DT_FLOAT", "tensorShape": {"dim": [{"size": "1152"}]}}}, "dtype": {"type": "DT_FLOAT"}}}, {"name": "StatefulPartitionedCall/model/model021/efficientnetv2-b1/block6c_se_squeeze/Mean/reduction_indices", "op": "Const", "attr": {"dtype": {"type": "DT_INT32"}, "value": {"tensor": {"dtype": "DT_INT32", "tensorShape": {"dim": [{"size": "2"}]}}}}}, {"name": "StatefulPartitionedCall/model/model021/efficientnetv2-b1/block6c_se_reshape/strided_slice/stack", "op": "Const", "attr": {"dtype": {"type": "DT_INT32"}, "value": {"tensor": {"dtype": "DT_INT32", "tensorShape": {"dim": [{"size": "1"}]}}}}}, {"name": "StatefulPartitionedCall/model/model021/efficientnetv2-b1/block6c_se_reshape/strided_slice/stack_1", "op": "Const", "attr": {"dtype": {"type": "DT_INT32"}, "value": {"tensor": {"dtype": "DT_INT32", "tensorShape": {"dim": [{"size": "1"}]}}}}}, {"name": "StatefulPartitionedCall/model/model021/efficientnetv2-b1/block6c_se_reshape/strided_slice/stack_2", "op": "Const", "attr": {"dtype": {"type": "DT_INT32"}, "value": {"tensor": {"dtype": "DT_INT32", "tensorShape": {"dim": [{"size": "1"}]}}}}}, {"name": "StatefulPartitionedCall/model/model021/efficientnetv2-b1/block6c_se_reshape/Reshape/shape/1", "op": "Const", "attr": {"dtype": {"type": "DT_INT32"}, "value": {"tensor": {"dtype": "DT_INT32", "tensorShape": {}}}}}, {"name": "StatefulPartitionedCall/model/model021/efficientnetv2-b1/block6c_se_reshape/Reshape/shape/2", "op": "Const", "attr": {"dtype": {"type": "DT_INT32"}, "value": {"tensor": {"dtype": "DT_INT32", "tensorShape": {}}}}}, {"name": "StatefulPartitionedCall/model/model021/efficientnetv2-b1/block6c_se_reshape/Reshape/shape/3", "op": "Const", "attr": {"dtype": {"type": "DT_INT32"}, "value": {"tensor": {"dtype": "DT_INT32", "tensorShape": {}}}}}, {"name": "StatefulPartitionedCall/model/model021/efficientnetv2-b1/block6c_se_reduce/Conv2D/ReadVariableOp", "op": "Const", "attr": {"dtype": {"type": "DT_FLOAT"}, "value": {"tensor": {"dtype": "DT_FLOAT", "tensorShape": {"dim": [{"size": "1"}, {"size": "1"}, {"size": "1152"}, {"size": "48"}]}}}}}, {"name": "StatefulPartitionedCall/model/model021/efficientnetv2-b1/block6c_se_reduce/BiasAdd/ReadVariableOp", "op": "Const", "attr": {"dtype": {"type": "DT_FLOAT"}, "value": {"tensor": {"dtype": "DT_FLOAT", "tensorShape": {"dim": [{"size": "48"}]}}}}}, {"name": "StatefulPartitionedCall/model/model021/efficientnetv2-b1/block6c_se_expand/Conv2D/ReadVariableOp", "op": "Const", "attr": {"dtype": {"type": "DT_FLOAT"}, "value": {"tensor": {"dtype": "DT_FLOAT", "tensorShape": {"dim": [{"size": "1"}, {"size": "1"}, {"size": "48"}, {"size": "1152"}]}}}}}, {"name": "StatefulPartitionedCall/model/model021/efficientnetv2-b1/block6c_se_expand/BiasAdd/ReadVariableOp", "op": "Const", "attr": {"dtype": {"type": "DT_FLOAT"}, "value": {"tensor": {"dtype": "DT_FLOAT", "tensorShape": {"dim": [{"size": "1152"}]}}}}}, {"name": "StatefulPartitionedCall/model/model021/efficientnetv2-b1/block6b_se_squeeze/Mean/reduction_indices", "op": "Const", "attr": {"dtype": {"type": "DT_INT32"}, "value": {"tensor": {"dtype": "DT_INT32", "tensorShape": {"dim": [{"size": "2"}]}}}}}, {"name": "StatefulPartitionedCall/model/model021/efficientnetv2-b1/block6b_se_reshape/strided_slice/stack", "op": "Const", "attr": {"dtype": {"type": "DT_INT32"}, "value": {"tensor": {"dtype": "DT_INT32", "tensorShape": {"dim": [{"size": "1"}]}}}}}, {"name": "StatefulPartitionedCall/model/model021/efficientnetv2-b1/block6b_se_reshape/strided_slice/stack_1", "op": "Const", "attr": {"dtype": {"type": "DT_INT32"}, "value": {"tensor": {"dtype": "DT_INT32", "tensorShape": {"dim": [{"size": "1"}]}}}}}, {"name": "StatefulPartitionedCall/model/model021/efficientnetv2-b1/block6b_se_reshape/strided_slice/stack_2", "op": "Const", "attr": {"dtype": {"type": "DT_INT32"}, "value": {"tensor": {"dtype": "DT_INT32", "tensorShape": {"dim": [{"size": "1"}]}}}}}, {"name": "StatefulPartitionedCall/model/model021/efficientnetv2-b1/block6b_se_reshape/Reshape/shape/1", "op": "Const", "attr": {"dtype": {"type": "DT_INT32"}, "value": {"tensor": {"dtype": "DT_INT32", "tensorShape": {}}}}}, {"name": "StatefulPartitionedCall/model/model021/efficientnetv2-b1/block6b_se_reshape/Reshape/shape/2", "op": "Const", "attr": {"dtype": {"type": "DT_INT32"}, "value": {"tensor": {"dtype": "DT_INT32", "tensorShape": {}}}}}, {"name": "StatefulPartitionedCall/model/model021/efficientnetv2-b1/block6b_se_reshape/Reshape/shape/3", "op": "Const", "attr": {"dtype": {"type": "DT_INT32"}, "value": {"tensor": {"dtype": "DT_INT32", "tensorShape": {}}}}}, {"name": "StatefulPartitionedCall/model/model021/efficientnetv2-b1/block6b_se_reduce/Conv2D/ReadVariableOp", "op": "Const", "attr": {"dtype": {"type": "DT_FLOAT"}, "value": {"tensor": {"dtype": "DT_FLOAT", "tensorShape": {"dim": [{"size": "1"}, {"size": "1"}, {"size": "1152"}, {"size": "48"}]}}}}}, {"name": "StatefulPartitionedCall/model/model021/efficientnetv2-b1/block6b_se_reduce/BiasAdd/ReadVariableOp", "op": "Const", "attr": {"dtype": {"type": "DT_FLOAT"}, "value": {"tensor": {"dtype": "DT_FLOAT", "tensorShape": {"dim": [{"size": "48"}]}}}}}, {"name": "StatefulPartitionedCall/model/model021/efficientnetv2-b1/block6b_se_expand/Conv2D/ReadVariableOp", "op": "Const", "attr": {"dtype": {"type": "DT_FLOAT"}, "value": {"tensor": {"dtype": "DT_FLOAT", "tensorShape": {"dim": [{"size": "1"}, {"size": "1"}, {"size": "48"}, {"size": "1152"}]}}}}}, {"name": "StatefulPartitionedCall/model/model021/efficientnetv2-b1/block6b_se_expand/BiasAdd/ReadVariableOp", "op": "Const", "attr": {"dtype": {"type": "DT_FLOAT"}, "value": {"tensor": {"dtype": "DT_FLOAT", "tensorShape": {"dim": [{"size": "1152"}]}}}}}, {"name": "StatefulPartitionedCall/model/model021/efficientnetv2-b1/block5f_se_squeeze/Mean/reduction_indices", "op": "Const", "attr": {"dtype": {"type": "DT_INT32"}, "value": {"tensor": {"dtype": "DT_INT32", "tensorShape": {"dim": [{"size": "2"}]}}}}}, {"name": "StatefulPartitionedCall/model/model021/efficientnetv2-b1/block5f_se_reshape/strided_slice/stack", "op": "Const", "attr": {"dtype": {"type": "DT_INT32"}, "value": {"tensor": {"dtype": "DT_INT32", "tensorShape": {"dim": [{"size": "1"}]}}}}}, {"name": "StatefulPartitionedCall/model/model021/efficientnetv2-b1/block5f_se_reshape/strided_slice/stack_1", "op": "Const", "attr": {"dtype": {"type": "DT_INT32"}, "value": {"tensor": {"dtype": "DT_INT32", "tensorShape": {"dim": [{"size": "1"}]}}}}}, {"name": "StatefulPartitionedCall/model/model021/efficientnetv2-b1/block5f_se_reshape/strided_slice/stack_2", "op": "Const", "attr": {"dtype": {"type": "DT_INT32"}, "value": {"tensor": {"dtype": "DT_INT32", "tensorShape": {"dim": [{"size": "1"}]}}}}}, {"name": "StatefulPartitionedCall/model/model021/efficientnetv2-b1/block5f_se_reshape/Reshape/shape/1", "op": "Const", "attr": {"dtype": {"type": "DT_INT32"}, "value": {"tensor": {"dtype": "DT_INT32", "tensorShape": {}}}}}, {"name": "StatefulPartitionedCall/model/model021/efficientnetv2-b1/block5f_se_reshape/Reshape/shape/2", "op": "Const", "attr": {"dtype": {"type": "DT_INT32"}, "value": {"tensor": {"dtype": "DT_INT32", "tensorShape": {}}}}}, {"name": "StatefulPartitionedCall/model/model021/efficientnetv2-b1/block5f_se_reshape/Reshape/shape/3", "op": "Const", "attr": {"dtype": {"type": "DT_INT32"}, "value": {"tensor": {"dtype": "DT_INT32", "tensorShape": {}}}}}, {"name": "StatefulPartitionedCall/model/model021/efficientnetv2-b1/block5f_se_reduce/Conv2D/ReadVariableOp", "op": "Const", "attr": {"dtype": {"type": "DT_FLOAT"}, "value": {"tensor": {"dtype": "DT_FLOAT", "tensorShape": {"dim": [{"size": "1"}, {"size": "1"}, {"size": "672"}, {"size": "28"}]}}}}}, {"name": "StatefulPartitionedCall/model/model021/efficientnetv2-b1/block5f_se_reduce/BiasAdd/ReadVariableOp", "op": "Const", "attr": {"dtype": {"type": "DT_FLOAT"}, "value": {"tensor": {"dtype": "DT_FLOAT", "tensorShape": {"dim": [{"size": "28"}]}}}}}, {"name": "StatefulPartitionedCall/model/model021/efficientnetv2-b1/block5f_se_expand/Conv2D/ReadVariableOp", "op": "Const", "attr": {"dtype": {"type": "DT_FLOAT"}, "value": {"tensor": {"dtype": "DT_FLOAT", "tensorShape": {"dim": [{"size": "1"}, {"size": "1"}, {"size": "28"}, {"size": "672"}]}}}}}, {"name": "StatefulPartitionedCall/model/model021/efficientnetv2-b1/block5f_se_expand/BiasAdd/ReadVariableOp", "op": "Const", "attr": {"dtype": {"type": "DT_FLOAT"}, "value": {"tensor": {"dtype": "DT_FLOAT", "tensorShape": {"dim": [{"size": "672"}]}}}}}, {"name": "StatefulPartitionedCall/model/model021/efficientnetv2-b1/block5e_se_squeeze/Mean/reduction_indices", "op": "Const", "attr": {"dtype": {"type": "DT_INT32"}, "value": {"tensor": {"dtype": "DT_INT32", "tensorShape": {"dim": [{"size": "2"}]}}}}}, {"name": "StatefulPartitionedCall/model/model021/efficientnetv2-b1/block5e_se_reshape/strided_slice/stack", "op": "Const", "attr": {"dtype": {"type": "DT_INT32"}, "value": {"tensor": {"dtype": "DT_INT32", "tensorShape": {"dim": [{"size": "1"}]}}}}}, {"name": "StatefulPartitionedCall/model/model021/efficientnetv2-b1/block5e_se_reshape/strided_slice/stack_1", "op": "Const", "attr": {"dtype": {"type": "DT_INT32"}, "value": {"tensor": {"dtype": "DT_INT32", "tensorShape": {"dim": [{"size": "1"}]}}}}}, {"name": "StatefulPartitionedCall/model/model021/efficientnetv2-b1/block5e_se_reshape/strided_slice/stack_2", "op": "Const", "attr": {"dtype": {"type": "DT_INT32"}, "value": {"tensor": {"dtype": "DT_INT32", "tensorShape": {"dim": [{"size": "1"}]}}}}}, {"name": "StatefulPartitionedCall/model/model021/efficientnetv2-b1/block5e_se_reshape/Reshape/shape/1", "op": "Const", "attr": {"dtype": {"type": "DT_INT32"}, "value": {"tensor": {"dtype": "DT_INT32", "tensorShape": {}}}}}, {"name": "StatefulPartitionedCall/model/model021/efficientnetv2-b1/block5e_se_reshape/Reshape/shape/2", "op": "Const", "attr": {"dtype": {"type": "DT_INT32"}, "value": {"tensor": {"dtype": "DT_INT32", "tensorShape": {}}}}}, {"name": "StatefulPartitionedCall/model/model021/efficientnetv2-b1/block5e_se_reshape/Reshape/shape/3", "op": "Const", "attr": {"dtype": {"type": "DT_INT32"}, "value": {"tensor": {"dtype": "DT_INT32", "tensorShape": {}}}}}, {"name": "StatefulPartitionedCall/model/model021/efficientnetv2-b1/block5e_se_reduce/Conv2D/ReadVariableOp", "op": "Const", "attr": {"dtype": {"type": "DT_FLOAT"}, "value": {"tensor": {"dtype": "DT_FLOAT", "tensorShape": {"dim": [{"size": "1"}, {"size": "1"}, {"size": "672"}, {"size": "28"}]}}}}}, {"name": "StatefulPartitionedCall/model/model021/efficientnetv2-b1/block5e_se_reduce/BiasAdd/ReadVariableOp", "op": "Const", "attr": {"dtype": {"type": "DT_FLOAT"}, "value": {"tensor": {"dtype": "DT_FLOAT", "tensorShape": {"dim": [{"size": "28"}]}}}}}, {"name": "StatefulPartitionedCall/model/model021/efficientnetv2-b1/block5e_se_expand/Conv2D/ReadVariableOp", "op": "Const", "attr": {"value": {"tensor": {"dtype": "DT_FLOAT", "tensorShape": {"dim": [{"size": "1"}, {"size": "1"}, {"size": "28"}, {"size": "672"}]}}}, "dtype": {"type": "DT_FLOAT"}}}, {"name": "StatefulPartitionedCall/model/model021/efficientnetv2-b1/block5e_se_expand/BiasAdd/ReadVariableOp", "op": "Const", "attr": {"dtype": {"type": "DT_FLOAT"}, "value": {"tensor": {"dtype": "DT_FLOAT", "tensorShape": {"dim": [{"size": "672"}]}}}}}, {"name": "StatefulPartitionedCall/model/model021/efficientnetv2-b1/block5d_se_squeeze/Mean/reduction_indices", "op": "Const", "attr": {"dtype": {"type": "DT_INT32"}, "value": {"tensor": {"dtype": "DT_INT32", "tensorShape": {"dim": [{"size": "2"}]}}}}}, {"name": "StatefulPartitionedCall/model/model021/efficientnetv2-b1/block5d_se_reshape/strided_slice/stack", "op": "Const", "attr": {"dtype": {"type": "DT_INT32"}, "value": {"tensor": {"dtype": "DT_INT32", "tensorShape": {"dim": [{"size": "1"}]}}}}}, {"name": "StatefulPartitionedCall/model/model021/efficientnetv2-b1/block5d_se_reshape/strided_slice/stack_1", "op": "Const", "attr": {"dtype": {"type": "DT_INT32"}, "value": {"tensor": {"dtype": "DT_INT32", "tensorShape": {"dim": [{"size": "1"}]}}}}}, {"name": "StatefulPartitionedCall/model/model021/efficientnetv2-b1/block5d_se_reshape/strided_slice/stack_2", "op": "Const", "attr": {"dtype": {"type": "DT_INT32"}, "value": {"tensor": {"dtype": "DT_INT32", "tensorShape": {"dim": [{"size": "1"}]}}}}}, {"name": "StatefulPartitionedCall/model/model021/efficientnetv2-b1/block5d_se_reshape/Reshape/shape/1", "op": "Const", "attr": {"dtype": {"type": "DT_INT32"}, "value": {"tensor": {"dtype": "DT_INT32", "tensorShape": {}}}}}, {"name": "StatefulPartitionedCall/model/model021/efficientnetv2-b1/block5d_se_reshape/Reshape/shape/2", "op": "Const", "attr": {"dtype": {"type": "DT_INT32"}, "value": {"tensor": {"dtype": "DT_INT32", "tensorShape": {}}}}}, {"name": "StatefulPartitionedCall/model/model021/efficientnetv2-b1/block5d_se_reshape/Reshape/shape/3", "op": "Const", "attr": {"dtype": {"type": "DT_INT32"}, "value": {"tensor": {"dtype": "DT_INT32", "tensorShape": {}}}}}, {"name": "StatefulPartitionedCall/model/model021/efficientnetv2-b1/block5d_se_reduce/Conv2D/ReadVariableOp", "op": "Const", "attr": {"dtype": {"type": "DT_FLOAT"}, "value": {"tensor": {"dtype": "DT_FLOAT", "tensorShape": {"dim": [{"size": "1"}, {"size": "1"}, {"size": "672"}, {"size": "28"}]}}}}}, {"name": "StatefulPartitionedCall/model/model021/efficientnetv2-b1/block5d_se_reduce/BiasAdd/ReadVariableOp", "op": "Const", "attr": {"dtype": {"type": "DT_FLOAT"}, "value": {"tensor": {"dtype": "DT_FLOAT", "tensorShape": {"dim": [{"size": "28"}]}}}}}, {"name": "StatefulPartitionedCall/model/model021/efficientnetv2-b1/block5d_se_expand/Conv2D/ReadVariableOp", "op": "Const", "attr": {"dtype": {"type": "DT_FLOAT"}, "value": {"tensor": {"dtype": "DT_FLOAT", "tensorShape": {"dim": [{"size": "1"}, {"size": "1"}, {"size": "28"}, {"size": "672"}]}}}}}, {"name": "StatefulPartitionedCall/model/model021/efficientnetv2-b1/block5d_se_expand/BiasAdd/ReadVariableOp", "op": "Const", "attr": {"dtype": {"type": "DT_FLOAT"}, "value": {"tensor": {"dtype": "DT_FLOAT", "tensorShape": {"dim": [{"size": "672"}]}}}}}, {"name": "StatefulPartitionedCall/model/model021/efficientnetv2-b1/block5c_se_squeeze/Mean/reduction_indices", "op": "Const", "attr": {"dtype": {"type": "DT_INT32"}, "value": {"tensor": {"dtype": "DT_INT32", "tensorShape": {"dim": [{"size": "2"}]}}}}}, {"name": "StatefulPartitionedCall/model/model021/efficientnetv2-b1/block5c_se_reshape/strided_slice/stack", "op": "Const", "attr": {"dtype": {"type": "DT_INT32"}, "value": {"tensor": {"dtype": "DT_INT32", "tensorShape": {"dim": [{"size": "1"}]}}}}}, {"name": "StatefulPartitionedCall/model/model021/efficientnetv2-b1/block5c_se_reshape/strided_slice/stack_1", "op": "Const", "attr": {"dtype": {"type": "DT_INT32"}, "value": {"tensor": {"dtype": "DT_INT32", "tensorShape": {"dim": [{"size": "1"}]}}}}}, {"name": "StatefulPartitionedCall/model/model021/efficientnetv2-b1/block5c_se_reshape/strided_slice/stack_2", "op": "Const", "attr": {"dtype": {"type": "DT_INT32"}, "value": {"tensor": {"dtype": "DT_INT32", "tensorShape": {"dim": [{"size": "1"}]}}}}}, {"name": "StatefulPartitionedCall/model/model021/efficientnetv2-b1/block5c_se_reshape/Reshape/shape/1", "op": "Const", "attr": {"dtype": {"type": "DT_INT32"}, "value": {"tensor": {"dtype": "DT_INT32", "tensorShape": {}}}}}, {"name": "StatefulPartitionedCall/model/model021/efficientnetv2-b1/block5c_se_reshape/Reshape/shape/2", "op": "Const", "attr": {"dtype": {"type": "DT_INT32"}, "value": {"tensor": {"dtype": "DT_INT32", "tensorShape": {}}}}}, {"name": "StatefulPartitionedCall/model/model021/efficientnetv2-b1/block5c_se_reshape/Reshape/shape/3", "op": "Const", "attr": {"dtype": {"type": "DT_INT32"}, "value": {"tensor": {"dtype": "DT_INT32", "tensorShape": {}}}}}, {"name": "StatefulPartitionedCall/model/model021/efficientnetv2-b1/block5c_se_reduce/Conv2D/ReadVariableOp", "op": "Const", "attr": {"dtype": {"type": "DT_FLOAT"}, "value": {"tensor": {"dtype": "DT_FLOAT", "tensorShape": {"dim": [{"size": "1"}, {"size": "1"}, {"size": "672"}, {"size": "28"}]}}}}}, {"name": "StatefulPartitionedCall/model/model021/efficientnetv2-b1/block5c_se_reduce/BiasAdd/ReadVariableOp", "op": "Const", "attr": {"dtype": {"type": "DT_FLOAT"}, "value": {"tensor": {"dtype": "DT_FLOAT", "tensorShape": {"dim": [{"size": "28"}]}}}}}, {"name": "StatefulPartitionedCall/model/model021/efficientnetv2-b1/block5c_se_expand/Conv2D/ReadVariableOp", "op": "Const", "attr": {"dtype": {"type": "DT_FLOAT"}, "value": {"tensor": {"dtype": "DT_FLOAT", "tensorShape": {"dim": [{"size": "1"}, {"size": "1"}, {"size": "28"}, {"size": "672"}]}}}}}, {"name": "StatefulPartitionedCall/model/model021/efficientnetv2-b1/block5c_se_expand/BiasAdd/ReadVariableOp", "op": "Const", "attr": {"dtype": {"type": "DT_FLOAT"}, "value": {"tensor": {"dtype": "DT_FLOAT", "tensorShape": {"dim": [{"size": "672"}]}}}}}, {"name": "StatefulPartitionedCall/model/model021/efficientnetv2-b1/block5b_se_squeeze/Mean/reduction_indices", "op": "Const", "attr": {"dtype": {"type": "DT_INT32"}, "value": {"tensor": {"dtype": "DT_INT32", "tensorShape": {"dim": [{"size": "2"}]}}}}}, {"name": "StatefulPartitionedCall/model/model021/efficientnetv2-b1/block5b_se_reshape/strided_slice/stack", "op": "Const", "attr": {"dtype": {"type": "DT_INT32"}, "value": {"tensor": {"dtype": "DT_INT32", "tensorShape": {"dim": [{"size": "1"}]}}}}}, {"name": "StatefulPartitionedCall/model/model021/efficientnetv2-b1/block5b_se_reshape/strided_slice/stack_1", "op": "Const", "attr": {"dtype": {"type": "DT_INT32"}, "value": {"tensor": {"dtype": "DT_INT32", "tensorShape": {"dim": [{"size": "1"}]}}}}}, {"name": "StatefulPartitionedCall/model/model021/efficientnetv2-b1/block5b_se_reshape/strided_slice/stack_2", "op": "Const", "attr": {"value": {"tensor": {"dtype": "DT_INT32", "tensorShape": {"dim": [{"size": "1"}]}}}, "dtype": {"type": "DT_INT32"}}}, {"name": "StatefulPartitionedCall/model/model021/efficientnetv2-b1/block5b_se_reshape/Reshape/shape/1", "op": "Const", "attr": {"dtype": {"type": "DT_INT32"}, "value": {"tensor": {"dtype": "DT_INT32", "tensorShape": {}}}}}, {"name": "StatefulPartitionedCall/model/model021/efficientnetv2-b1/block5b_se_reshape/Reshape/shape/2", "op": "Const", "attr": {"value": {"tensor": {"dtype": "DT_INT32", "tensorShape": {}}}, "dtype": {"type": "DT_INT32"}}}, {"name": "StatefulPartitionedCall/model/model021/efficientnetv2-b1/block5b_se_reshape/Reshape/shape/3", "op": "Const", "attr": {"dtype": {"type": "DT_INT32"}, "val…
hwise_weights", "shape": [3, 3, 224, 1], "dtype": "float32"}, {"name": "StatefulPartitionedCall/model/model013/efficientnetv2-b3/block4a_dwconv2/depthwise_bn_offset", "shape": [224], "dtype": "float32"}, {"name": "StatefulPartitionedCall/model/model016/efficientnetv2-b0/block4b_expand_conv/Conv2D_weights", "shape": [1, 1, 96, 384], "dtype": "float32"}, {"name": "StatefulPartitionedCall/model/model013/efficientnetv2-b3/block6g_expand_conv/Conv2D_weights", "shape": [1, 1, 232, 1392], "dtype": "float32"}, {"name": "StatefulPartitionedCall/model/model016/efficientnetv2-b0/block4b_expand_conv/Conv2D_bn_offset", "shape": [384], "dtype": "float32"}, {"name": "StatefulPartitionedCall/model/model021/efficientnetv2-b1/block4a_dwconv2/depthwise_weights", "shape": [3, 3, 192, 1], "dtype": "float32"}, {"name": "StatefulPartitionedCall/model/model021/efficientnetv2-b1/block4a_dwconv2/depthwise_bn_offset", "shape": [192], "dtype": "float32"}, {"name": "StatefulPartitionedCall/model/model013/efficientnetv2-b3/block6g_expand_conv/Conv2D_bn_offset", "shape": [1392], "dtype": "float32"}, {"name": "StatefulPartitionedCall/model/model016/efficientnetv2-b0/block4b_dwconv2/depthwise_weights", "shape": [3, 3, 384, 1], "dtype": "float32"}, {"name": "StatefulPartitionedCall/model/model016/efficientnetv2-b0/block4b_dwconv2/depthwise_bn_offset", "shape": [384], "dtype": "float32"}, {"name": "StatefulPartitionedCall/model/model013/efficientnetv2-b3/block4a_project_conv/Conv2D_weights", "shape": [1, 1, 224, 112], "dtype": "float32"}, {"name": "StatefulPartitionedCall/model/model013/efficientnetv2-b3/block4a_project_conv/Conv2D_bn_offset", "shape": [112], "dtype": "float32"}, {"name": "StatefulPartitionedCall/model/model021/efficientnetv2-b1/block4a_project_conv/Conv2D_weights", "shape": [1, 1, 192, 96], "dtype": "float32"}, {"name": "StatefulPartitionedCall/model/model021/efficientnetv2-b1/block6i_expand_conv/Conv2D_weights", "shape": [1, 1, 192, 1152], "dtype": "float32"}, {"name": "StatefulPartitionedCall/model/model021/efficientnetv2-b1/block4a_project_conv/Conv2D_bn_offset", "shape": [96], "dtype": "float32"}, {"name": "StatefulPartitionedCall/model/model013/efficientnetv2-b3/block4b_expand_conv/Conv2D_weights", "shape": [1, 1, 112, 448], "dtype": "float32"}, {"name": "StatefulPartitionedCall/model/model013/efficientnetv2-b3/block4b_expand_conv/Conv2D_bn_offset", "shape": [448], "dtype": "float32"}, {"name": "StatefulPartitionedCall/model/model021/efficientnetv2-b1/block4b_expand_conv/Conv2D_weights", "shape": [1, 1, 96, 384], "dtype": "float32"}, {"name": "StatefulPartitionedCall/model/model021/efficientnetv2-b1/block6i_expand_conv/Conv2D_bn_offset", "shape": [1152], "dtype": "float32"}, {"name": "StatefulPartitionedCall/model/model021/efficientnetv2-b1/block4b_expand_conv/Conv2D_bn_offset", "shape": [384], "dtype": "float32"}, {"name": "StatefulPartitionedCall/model/model016/efficientnetv2-b0/block4b_project_conv/Conv2D_weights", "shape": [1, 1, 384, 96], "dtype": "float32"}, {"name": "StatefulPartitionedCall/model/model016/efficientnetv2-b0/block4b_project_conv/Conv2D_bn_offset", "shape": [96], "dtype": "float32"}, {"name": "StatefulPartitionedCall/model/model013/efficientnetv2-b3/block4b_dwconv2/depthwise_weights", "shape": [3, 3, 448, 1], "dtype": "float32"}, {"name": "StatefulPartitionedCall/model/model013/efficientnetv2-b3/block4b_dwconv2/depthwise_bn_offset", "shape": [448], "dtype": "float32"}, {"name": "StatefulPartitionedCall/model/model021/efficientnetv2-b1/block4b_dwconv2/depthwise_weights", "shape": [3, 3, 384, 1], "dtype": "float32"}, {"name": "StatefulPartitionedCall/model/model021/efficientnetv2-b1/block4b_dwconv2/depthwise_bn_offset", "shape": [384], "dtype": "float32"}, {"name": "StatefulPartitionedCall/model/model013/efficientnetv2-b3/block6g_dwconv2/depthwise_weights", "shape": [3, 3, 1392, 1], "dtype": "float32"}, {"name": "StatefulPartitionedCall/model/model016/efficientnetv2-b0/block4c_expand_conv/Conv2D_weights", "shape": [1, 1, 96, 384], "dtype": "float32"}, {"name": "StatefulPartitionedCall/model/model013/efficientnetv2-b3/block6g_dwconv2/depthwise_bn_offset", "shape": [1392], "dtype": "float32"}, {"name": "StatefulPartitionedCall/model/model016/efficientnetv2-b0/block4c_expand_conv/Conv2D_bn_offset", "shape": [384], "dtype": "float32"}, {"name": "StatefulPartitionedCall/model/model016/efficientnetv2-b0/block4c_dwconv2/depthwise_weights", "shape": [3, 3, 384, 1], "dtype": "float32"}, {"name": "StatefulPartitionedCall/model/model016/efficientnetv2-b0/block4c_dwconv2/depthwise_bn_offset", "shape": [384], "dtype": "float32"}, {"name": "StatefulPartitionedCall/model/model013/efficientnetv2-b3/block4b_project_conv/Conv2D_weights", "shape": [1, 1, 448, 112], "dtype": "float32"}, {"name": "StatefulPartitionedCall/model/model013/efficientnetv2-b3/block4b_project_conv/Conv2D_bn_offset", "shape": [112], "dtype": "float32"}, {"name": "StatefulPartitionedCall/model/model021/efficientnetv2-b1/block4b_project_conv/Conv2D_weights", "shape": [1, 1, 384, 96], "dtype": "float32"}, {"name": "StatefulPartitionedCall/model/model021/efficientnetv2-b1/block4b_project_conv/Conv2D_bn_offset", "shape": [96], "dtype": "float32"}, {"name": "StatefulPartitionedCall/model/model013/efficientnetv2-b3/block4c_expand_conv/Conv2D_weights", "shape": [1, 1, 112, 448], "dtype": "float32"}, {"name": "StatefulPartitionedCall/model/model013/efficientnetv2-b3/block4c_expand_conv/Conv2D_bn_offset", "shape": [448], "dtype": "float32"}, {"name": "StatefulPartitionedCall/model/model021/efficientnetv2-b1/block4c_expand_conv/Conv2D_weights", "shape": [1, 1, 96, 384], "dtype": "float32"}, {"name": "StatefulPartitionedCall/model/model021/efficientnetv2-b1/block4c_expand_conv/Conv2D_bn_offset", "shape": [384], "dtype": "float32"}, {"name": "StatefulPartitionedCall/model/model016/efficientnetv2-b0/block4c_project_conv/Conv2D_weights", "shape": [1, 1, 384, 96], "dtype": "float32"}, {"name": "StatefulPartitionedCall/model/model016/efficientnetv2-b0/block4c_project_conv/Conv2D_bn_offset", "shape": [96], "dtype": "float32"}, {"name": "StatefulPartitionedCall/model/model013/efficientnetv2-b3/block4c_dwconv2/depthwise_weights", "shape": [3, 3, 448, 1], "dtype": "float32"}, {"name": "StatefulPartitionedCall/model/model013/efficientnetv2-b3/block4c_dwconv2/depthwise_bn_offset", "shape": [448], "dtype": "float32"}, {"name": "StatefulPartitionedCall/model/model021/efficientnetv2-b1/block4c_dwconv2/depthwise_weights", "shape": [3, 3, 384, 1], "dtype": "float32"}, {"name": "StatefulPartitionedCall/model/model021/efficientnetv2-b1/block4c_dwconv2/depthwise_bn_offset", "shape": [384], "dtype": "float32"}, {"name": "StatefulPartitionedCall/model/model016/efficientnetv2-b0/block5a_expand_conv/Conv2D_weights", "shape": [1, 1, 96, 576], "dtype": "float32"}, {"name": "StatefulPartitionedCall/model/model016/efficientnetv2-b0/block5a_expand_conv/Conv2D_bn_offset", "shape": [576], "dtype": "float32"}, {"name": "StatefulPartitionedCall/model/model016/efficientnetv2-b0/block5a_dwconv2/depthwise_weights", "shape": [3, 3, 576, 1], "dtype": "float32"}, {"name": "StatefulPartitionedCall/model/model016/efficientnetv2-b0/block5a_dwconv2/depthwise_bn_offset", "shape": [576], "dtype": "float32"}, {"name": "StatefulPartitionedCall/model/model013/efficientnetv2-b3/block4c_project_conv/Conv2D_weights", "shape": [1, 1, 448, 112], "dtype": "float32"}, {"name": "StatefulPartitionedCall/model/model013/efficientnetv2-b3/block4c_project_conv/Conv2D_bn_offset", "shape": [112], "dtype": "float32"}, {"name": "StatefulPartitionedCall/model/model021/efficientnetv2-b1/block4c_project_conv/Conv2D_weights", "shape": [1, 1, 384, 96], "dtype": "float32"}, {"name": "StatefulPartitionedCall/model/model021/efficientnetv2-b1/block4c_project_conv/Conv2D_bn_offset", "shape": [96], "dtype": "float32"}, {"name": "StatefulPartitionedCall/model/model013/efficientnetv2-b3/block4d_expand_conv/Conv2D_weights", "shape": [1, 1, 112, 448], "dtype": "float32"}, {"name": "StatefulPartitionedCall/model/model021/efficientnetv2-b1/block6i_dwconv2/depthwise_weights", "shape": [3, 3, 1152, 1], "dtype": "float32"}, {"name": "StatefulPartitionedCall/model/model013/efficientnetv2-b3/block4d_expand_conv/Conv2D_bn_offset", "shape": [448], "dtype": "float32"}, {"name": "StatefulPartitionedCall/model/model021/efficientnetv2-b1/block4d_expand_conv/Conv2D_weights", "shape": [1, 1, 96, 384], "dtype": "float32"}, {"name": "StatefulPartitionedCall/model/model021/efficientnetv2-b1/block4d_expand_conv/Conv2D_bn_offset", "shape": [384], "dtype": "float32"}, {"name": "StatefulPartitionedCall/model/model016/efficientnetv2-b0/block5a_project_conv/Conv2D_weights", "shape": [1, 1, 576, 112], "dtype": "float32"}, {"name": "StatefulPartitionedCall/model/model021/efficientnetv2-b1/block6i_dwconv2/depthwise_bn_offset", "shape": [1152], "dtype": "float32"}, {"name": "StatefulPartitionedCall/model/model016/efficientnetv2-b0/block5a_project_conv/Conv2D_bn_offset", "shape": [112], "dtype": "float32"}, {"name": "StatefulPartitionedCall/model/model013/efficientnetv2-b3/block4d_dwconv2/depthwise_weights", "shape": [3, 3, 448, 1], "dtype": "float32"}, {"name": "StatefulPartitionedCall/model/model013/efficientnetv2-b3/block4d_dwconv2/depthwise_bn_offset", "shape": [448], "dtype": "float32"}, {"name": "StatefulPartitionedCall/model/model016/efficientnetv2-b0/block5b_expand_conv/Conv2D_weights", "shape": [1, 1, 112, 672], "dtype": "float32"}, {"name": "StatefulPartitionedCall/model/model016/efficientnetv2-b0/block5b_expand_conv/Conv2D_bn_offset", "shape": [672], "dtype": "float32"}, {"name": "StatefulPartitionedCall/model/model021/efficientnetv2-b1/block4d_dwconv2/depthwise_weights", "shape": [3, 3, 384, 1], "dtype": "float32"}, {"name": "StatefulPartitionedCall/model/model021/efficientnetv2-b1/block4d_dwconv2/depthwise_bn_offset", "shape": [384], "dtype": "float32"}, {"name": "StatefulPartitionedCall/model/model016/efficientnetv2-b0/block5b_dwconv2/depthwise_weights", "shape": [3, 3, 672, 1], "dtype": "float32"}, {"name": "StatefulPartitionedCall/model/model016/efficientnetv2-b0/block5b_dwconv2/depthwise_bn_offset", "shape": [672], "dtype": "float32"}, {"name": "StatefulPartitionedCall/model/model013/efficientnetv2-b3/block4d_project_conv/Conv2D_weights", "shape": [1, 1, 448, 112], "dtype": "float32"}, {"name": "StatefulPartitionedCall/model/model013/efficientnetv2-b3/block4d_project_conv/Conv2D_bn_offset", "shape": [112], "dtype": "float32"}, {"name": "StatefulPartitionedCall/model/model021/efficientnetv2-b1/block4d_project_conv/Conv2D_weights", "shape": [1, 1, 384, 96], "dtype": "float32"}, {"name": "StatefulPartitionedCall/model/model021/efficientnetv2-b1/block4d_project_conv/Conv2D_bn_offset", "shape": [96], "dtype": "float32"}, {"name": "StatefulPartitionedCall/model/model013/efficientnetv2-b3/block4e_expand_conv/Conv2D_weights", "shape": [1, 1, 112, 448], "dtype": "float32"}, {"name": "StatefulPartitionedCall/model/model013/efficientnetv2-b3/block4e_expand_conv/Conv2D_bn_offset", "shape": [448], "dtype": "float32"}, {"name": "StatefulPartitionedCall/model/model021/efficientnetv2-b1/block5a_expand_conv/Conv2D_weights", "shape": [1, 1, 96, 576], "dtype": "float32"}, {"name": "StatefulPartitionedCall/model/model021/efficientnetv2-b1/block5a_expand_conv/Conv2D_bn_offset", "shape": [576], "dtype": "float32"}, {"name": "StatefulPartitionedCall/model/model016/efficientnetv2-b0/block5b_project_conv/Conv2D_weights", "shape": [1, 1, 672, 112], "dtype": "float32"}, {"name": "StatefulPartitionedCall/model/model016/efficientnetv2-b0/block5b_project_conv/Conv2D_bn_offset", "shape": [112], "dtype": "float32"}, {"name": "StatefulPartitionedCall/model/model013/efficientnetv2-b3/block4e_dwconv2/depthwise_weights", "shape": [3, 3, 448, 1], "dtype": "float32"}, {"name": "StatefulPartitionedCall/model/model013/efficientnetv2-b3/block4e_dwconv2/depthwise_bn_offset", "shape": [448], "dtype": "float32"}, {"name": "StatefulPartitionedCall/model/model016/efficientnetv2-b0/block5c_expand_conv/Conv2D_weights", "shape": [1, 1, 112, 672], "dtype": "float32"}, {"name": "StatefulPartitionedCall/model/model016/efficientnetv2-b0/block5c_expand_conv/Conv2D_bn_offset", "shape": [672], "dtype": "float32"}, {"name": "StatefulPartitionedCall/model/model021/efficientnetv2-b1/block5a_dwconv2/depthwise_weights", "shape": [3, 3, 576, 1], "dtype": "float32"}, {"name": "StatefulPartitionedCall/model/model021/efficientnetv2-b1/block5a_dwconv2/depthwise_bn_offset", "shape": [576], "dtype": "float32"}, {"name": "StatefulPartitionedCall/model/model013/efficientnetv2-b3/block6g_project_conv/Conv2D_weights", "shape": [1, 1, 1392, 232], "dtype": "float32"}, {"name": "StatefulPartitionedCall/model/model016/efficientnetv2-b0/block5c_dwconv2/depthwise_weights", "shape": [3, 3, 672, 1], "dtype": "float32"}, {"name": "StatefulPartitionedCall/model/model016/efficientnetv2-b0/block5c_dwconv2/depthwise_bn_offset", "shape": [672], "dtype": "float32"}, {"name": "StatefulPartitionedCall/model/model013/efficientnetv2-b3/block6g_project_conv/Conv2D_bn_offset", "shape": [232], "dtype": "float32"}, {"name": "StatefulPartitionedCall/model/model013/efficientnetv2-b3/block4e_project_conv/Conv2D_weights", "shape": [1, 1, 448, 112], "dtype": "float32"}, {"name": "StatefulPartitionedCall/model/model013/efficientnetv2-b3/block4e_project_conv/Conv2D_bn_offset", "shape": [112], "dtype": "float32"}, {"name": "StatefulPartitionedCall/model/model021/efficientnetv2-b1/block5a_project_conv/Conv2D_weights", "shape": [1, 1, 576, 112], "dtype": "float32"}, {"name": "StatefulPartitionedCall/model/model021/efficientnetv2-b1/block5a_project_conv/Conv2D_bn_offset", "shape": [112], "dtype": "float32"}, {"name": "StatefulPartitionedCall/model/model013/efficientnetv2-b3/block5a_expand_conv/Conv2D_weights", "shape": [1, 1, 112, 672], "dtype": "float32"}, {"name": "StatefulPartitionedCall/model/model021/efficientnetv2-b1/block6i_project_conv/Conv2D_weights", "shape": [1, 1, 1152, 192], "dtype": "float32"}, {"name": "StatefulPartitionedCall/model/model013/efficientnetv2-b3/block5a_expand_conv/Conv2D_bn_offset", "shape": [672], "dtype": "float32"}, {"name": "StatefulPartitionedCall/model/model021/efficientnetv2-b1/block5b_expand_conv/Conv2D_weights", "shape": [1, 1, 112, 672], "dtype": "float32"}, {"name": "StatefulPartitionedCall/model/model021/efficientnetv2-b1/block5b_expand_conv/Conv2D_bn_offset", "shape": [672], "dtype": "float32"}, {"name": "StatefulPartitionedCall/model/model016/efficientnetv2-b0/block5c_project_conv/Conv2D_weights", "shape": [1, 1, 672, 112], "dtype": "float32"}, {"name": "StatefulPartitionedCall/model/model021/efficientnetv2-b1/block6i_project_conv/Conv2D_bn_offset", "shape": [192], "dtype": "float32"}, {"name": "StatefulPartitionedCall/model/model016/efficientnetv2-b0/block5c_project_conv/Conv2D_bn_offset", "shape": [112], "dtype": "float32"}, {"name": "StatefulPartitionedCall/model/model013/efficientnetv2-b3/block5a_dwconv2/depthwise_weights", "shape": [3, 3, 672, 1], "dtype": "float32"}, {"name": "StatefulPartitionedCall/model/model013/efficientnetv2-b3/block5a_dwconv2/depthwise_bn_offset", "shape": [672], "dtype": "float32"}, {"name": "StatefulPartitionedCall/model/model021/efficientnetv2-b1/block5b_dwconv2/depthwise_weights", "shape": [3, 3, 672, 1], "dtype": "float32"}, {"name": "StatefulPartitionedCall/model/model021/efficientnetv2-b1/block5b_dwconv2/depthwise_bn_offset", "shape": [672], "dtype": "float32"}, {"name": "StatefulPartitionedCall/model/model013/efficientnetv2-b3/block6h_expand_conv/Conv2D_weights", "shape": [1, 1, 232, 1392], "dtype": "float32"}, {"name": "StatefulPartitionedCall/model/model016/efficientnetv2-b0/block5d_expand_conv/Conv2D_weights", "shape": [1, 1, 112, 672], "dtype": "float32"}, {"name": "StatefulPartitionedCall/model/model013/efficientnetv2-b3/block6h_expand_conv/Conv2D_bn_offset", "shape": [1392], "dtype": "float32"}, {"name": "StatefulPartitionedCall/model/model016/efficientnetv2-b0/block5d_expand_conv/Conv2D_bn_offset", "shape": [672], "dtype": "float32"}, {"name": "StatefulPartitionedCall/model/model016/efficientnetv2-b0/block5d_dwconv2/depthwise_weights", "shape": [3, 3, 672, 1], "dtype": "float32"}, {"name": "StatefulPartitionedCall/model/model016/efficientnetv2-b0/block5d_dwconv2/depthwise_bn_offset", "shape": [672], "dtype": "float32"}, {"name": "StatefulPartitionedCall/model/model013/efficientnetv2-b3/block5a_project_conv/Conv2D_weights", "shape": [1, 1, 672, 136], "dtype": "float32"}, {"name": "StatefulPartitionedCall/model/model013/efficientnetv2-b3/block5a_project_conv/Conv2D_bn_offset", "shape": [136], "dtype": "float32"}, {"name": "StatefulPartitionedCall/model/model021/efficientnetv2-b1/block5b_project_conv/Conv2D_weights", "shape": [1, 1, 672, 112], "dtype": "float32"}, {"name": "StatefulPartitionedCall/model/model021/efficientnetv2-b1/top_conv/Conv2D_weights", "shape": [1, 1, 192, 1280], "dtype": "float32"}, {"name": "StatefulPartitionedCall/model/model021/efficientnetv2-b1/block5b_project_conv/Conv2D_bn_offset", "shape": [112], "dtype": "float32"}, {"name": "StatefulPartitionedCall/model/model013/efficientnetv2-b3/block5b_expand_conv/Conv2D_weights", "shape": [1, 1, 136, 816], "dtype": "float32"}, {"name": "StatefulPartitionedCall/model/model013/efficientnetv2-b3/block5b_expand_conv/Conv2D_bn_offset", "shape": [816], "dtype": "float32"}, {"name": "StatefulPartitionedCall/model/model021/efficientnetv2-b1/block5c_expand_conv/Conv2D_weights", "shape": [1, 1, 112, 672], "dtype": "float32"}, {"name": "StatefulPartitionedCall/model/model021/efficientnetv2-b1/top_conv/Conv2D_bn_offset", "shape": [1280], "dtype": "float32"}, {"name": "StatefulPartitionedCall/model/model021/efficientnetv2-b1/block5c_expand_conv/Conv2D_bn_offset", "shape": [672], "dtype": "float32"}, {"name": "StatefulPartitionedCall/model/model016/efficientnetv2-b0/block5d_project_conv/Conv2D_weights", "shape": [1, 1, 672, 112], "dtype": "float32"}, {"name": "StatefulPartitionedCall/model/model016/efficientnetv2-b0/block5d_project_conv/Conv2D_bn_offset", "shape": [112], "dtype": "float32"}, {"name": "StatefulPartitionedCall/model/model013/efficientnetv2-b3/block5b_dwconv2/depthwise_weights", "shape": [3, 3, 816, 1], "dtype": "float32"}, {"name": "StatefulPartitionedCall/model/model013/efficientnetv2-b3/block5b_dwconv2/depthwise_bn_offset", "shape": [816], "dtype": "float32"}, {"name": "StatefulPartitionedCall/model/model021/efficientnetv2-b1/block5c_dwconv2/depthwise_weights", "shape": [3, 3, 672, 1], "dtype": "float32"}, {"name": "StatefulPartitionedCall/model/model021/efficientnetv2-b1/block5c_dwconv2/depthwise_bn_offset", "shape": [672], "dtype": "float32"}, {"name": "StatefulPartitionedCall/model/model016/efficientnetv2-b0/block5e_expand_conv/Conv2D_weights", "shape": [1, 1, 112, 672], "dtype": "float32"}, {"name": "StatefulPartitionedCall/model/model016/efficientnetv2-b0/block5e_expand_conv/Conv2D_bn_offset", "shape": [672], "dtype": "float32"}, {"name": "StatefulPartitionedCall/model/model016/efficientnetv2-b0/block5e_dwconv2/depthwise_weights", "shape": [3, 3, 672, 1], "dtype": "float32"}, {"name": "StatefulPartitionedCall/model/model016/efficientnetv2-b0/block5e_dwconv2/depthwise_bn_offset", "shape": [672], "dtype": "float32"}, {"name": "StatefulPartitionedCall/model/model013/efficientnetv2-b3/block6h_dwconv2/depthwise_weights", "shape": [3, 3, 1392, 1], "dtype": "float32"}, {"name": "StatefulPartitionedCall/model/model013/efficientnetv2-b3/block5b_project_conv/Conv2D_weights", "shape": [1, 1, 816, 136], "dtype": "float32"}, {"name": "StatefulPartitionedCall/model/model013/efficientnetv2-b3/block5b_project_conv/Conv2D_bn_offset", "shape": [136], "dtype": "float32"}, {"name": "StatefulPartitionedCall/model/model021/efficientnetv2-b1/block5c_project_conv/Conv2D_weights", "shape": [1, 1, 672, 112], "dtype": "float32"}, {"name": "StatefulPartitionedCall/model/model013/efficientnetv2-b3/block6h_dwconv2/depthwise_bn_offset", "shape": [1392], "dtype": "float32"}, {"name": "StatefulPartitionedCall/model/model021/efficientnetv2-b1/block5c_project_conv/Conv2D_bn_offset", "shape": [112], "dtype": "float32"}, {"name": "StatefulPartitionedCall/model/model013/efficientnetv2-b3/block5c_expand_conv/Conv2D_weights", "shape": [1, 1, 136, 816], "dtype": "float32"}, {"name": "StatefulPartitionedCall/model/model013/efficientnetv2-b3/block5c_expand_conv/Conv2D_bn_offset", "shape": [816], "dtype": "float32"}, {"name": "StatefulPartitionedCall/model/model021/efficientnetv2-b1/block5d_expand_conv/Conv2D_weights", "shape": [1, 1, 112, 672], "dtype": "float32"}, {"name": "StatefulPartitionedCall/model/model021/efficientnetv2-b1/block5d_expand_conv/Conv2D_bn_offset", "shape": [672], "dtype": "float32"}, {"name": "StatefulPartitionedCall/model/model016/efficientnetv2-b0/block5e_project_conv/Conv2D_weights", "shape": [1, 1, 672, 112], "dtype": "float32"}, {"name": "StatefulPartitionedCall/model/model016/efficientnetv2-b0/block5e_project_conv/Conv2D_bn_offset", "shape": [112], "dtype": "float32"}, {"name": "StatefulPartitionedCall/model/model013/efficientnetv2-b3/block5c_dwconv2/depthwise_weights", "shape": [3, 3, 816, 1], "dtype": "float32"}, {"name": "StatefulPartitionedCall/model/model013/efficientnetv2-b3/block5c_dwconv2/depthwise_bn_offset", "shape": [816], "dtype": "float32"}, {"name": "StatefulPartitionedCall/model/model021/efficientnetv2-b1/block5d_dwconv2/depthwise_weights", "shape": [3, 3, 672, 1], "dtype": "float32"}, {"name": "StatefulPartitionedCall/model/model021/efficientnetv2-b1/block5d_dwconv2/depthwise_bn_offset", "shape": [672], "dtype": "float32"}, {"name": "StatefulPartitionedCall/model/model016/efficientnetv2-b0/block6a_expand_conv/Conv2D_weights", "shape": [1, 1, 112, 672], "dtype": "float32"}, {"name": "StatefulPartitionedCall/model/model016/efficientnetv2-b0/block6a_expand_conv/Conv2D_bn_offset", "shape": [672], "dtype": "float32"}, {"name": "StatefulPartitionedCall/model/model016/efficientnetv2-b0/block6a_dwconv2/depthwise_weights", "shape": [3, 3, 672, 1], "dtype": "float32"}, {"name": "StatefulPartitionedCall/model/model016/efficientnetv2-b0/block6a_dwconv2/depthwise_bn_offset", "shape": [672], "dtype": "float32"}, {"name": "StatefulPartitionedCall/model/model013/efficientnetv2-b3/block5c_project_conv/Conv2D_weights", "shape": [1, 1, 816, 136], "dtype": "float32"}, {"name": "StatefulPartitionedCall/model/model013/efficientnetv2-b3/block5c_project_conv/Conv2D_bn_offset", "shape": [136], "dtype": "float32"}, {"name": "StatefulPartitionedCall/model/model021/efficientnetv2-b1/block5d_project_conv/Conv2D_weights", "shape": [1, 1, 672, 112], "dtype": "float32"}, {"name": "StatefulPartitionedCall/model/model021/efficientnetv2-b1/block5d_project_conv/Conv2D_bn_offset", "shape": [112], "dtype": "float32"}, {"name": "StatefulPartitionedCall/model/model013/efficientnetv2-b3/block5d_expand_conv/Conv2D_weights", "shape": [1, 1, 136, 816], "dtype": "float32"}, {"name": "StatefulPartitionedCall/model/model013/efficientnetv2-b3/block5d_expand_conv/Conv2D_bn_offset", "shape": [816], "dtype": "float32"}, {"name": "StatefulPartitionedCall/model/model021/efficientnetv2-b1/block5e_expand_conv/Conv2D_weights", "shape": [1, 1, 112, 672], "dtype": "float32"}, {"name": "StatefulPartitionedCall/model/model021/efficientnetv2-b1/block5e_expand_conv/Conv2D_bn_offset", "shape": [672], "dtype": "float32"}, {"name": "StatefulPartitionedCall/model/model016/efficientnetv2-b0/block6a_project_conv/Conv2D_weights", "shape": [1, 1, 672, 192], "dtype": "float32"}, {"name": "StatefulPartitionedCall/model/model016/efficientnetv2-b0/block6a_project_conv/Conv2D_bn_offset", "shape": [192], "dtype": "float32"}, {"name": "StatefulPartitionedCall/model/model013/efficientnetv2-b3/block5d_dwconv2/depthwise_weights", "shape": [3, 3, 816, 1], "dtype": "float32"}, {"name": "StatefulPartitionedCall/model/model013/efficientnetv2-b3/block5d_dwconv2/depthwise_bn_offset", "shape": [816], "dtype": "float32"}, {"name": "StatefulPartitionedCall/model/model013/efficientnetv2-b3/block6h_project_conv/Conv2D_weights", "shape": [1, 1, 1392, 232], "dtype": "float32"}, {"name": "StatefulPartitionedCall/model/model016/efficientnetv2-b0/block6b_expand_conv/Conv2D_weights", "shape": [1, 1, 192, 1152], "dtype": "float32"}, {"name": "StatefulPartitionedCall/model/model013/efficientnetv2-b3/block6l_project_conv/Conv2D_weights", "shape": [1, 1, 1392, 232], "dtype": "float32"}, {"name": "StatefulPartitionedCall/model/model016/efficientnetv2-b0/block6b_expand_conv/Conv2D_bn_offset", "shape": [1152], "dtype": "float32"}, {"name": "StatefulPartitionedCall/model/model021/efficientnetv2-b1/block5e_dwconv2/depthwise_weights", "shape": [3, 3, 672, 1], "dtype": "float32"}, {"name": "StatefulPartitionedCall/model/model021/efficientnetv2-b1/block5e_dwconv2/depthwise_bn_offset", "shape": [672], "dtype": "float32"}, {"name": "StatefulPartitionedCall/model/model013/efficientnetv2-b3/block6h_project_conv/Conv2D_bn_offset", "shape": [232], "dtype": "float32"}, {"name": "StatefulPartitionedCall/model/model016/efficientnetv2-b0/block6b_dwconv2/depthwise_weights", "shape": [3, 3, 1152, 1], "dtype": "float32"}, {"name": "StatefulPartitionedCall/model/model016/efficientnetv2-b0/block6b_dwconv2/depthwise_bn_offset", "shape": [1152], "dtype": "float32"}, {"name": "StatefulPartitionedCall/model/model013/efficientnetv2-b3/block6i_expand_conv/Conv2D_weights", "shape": [1, 1, 232, 1392], "dtype": "float32"}, {"name": "StatefulPartitionedCall/model/model013/efficientnetv2-b3/block5d_project_conv/Conv2D_weights", "shape": [1, 1, 816, 136], "dtype": "float32"}, {"name": "StatefulPartitionedCall/model/model013/efficientnetv2-b3/block5d_project_conv/Conv2D_bn_offset", "shape": [136], "dtype": "float32"}, {"name": "StatefulPartitionedCall/model/model021/efficientnetv2-b1/block5e_project_conv/Conv2D_weights", "shape": [1, 1, 672, 112], "dtype": "float32"}, {"name": "StatefulPartitionedCall/model/model013/efficientnetv2-b3/block6i_expand_conv/Conv2D_bn_offset", "shape": [1392], "dtype": "float32"}, {"name": "StatefulPartitionedCall/model/model021/efficientnetv2-b1/block5e_project_conv/Conv2D_bn_offset", "shape": [112], "dtype": "float32"}, {"name": "StatefulPartitionedCall/model/model013/efficientnetv2-b3/block5e_expand_conv/Conv2D_weights", "shape": [1, 1, 136, 816], "dtype": "float32"}, {"name": "StatefulPartitionedCall/model/model013/efficientnetv2-b3/block5e_expand_conv/Conv2D_bn_offset", "shape": [816], "dtype": "float32"}, {"name": "StatefulPartitionedCall/model/model021/efficientnetv2-b1/block5f_expand_conv/Conv2D_weights", "shape": [1, 1, 112, 672], "dtype": "float32"}, {"name": "StatefulPartitionedCall/model/model021/efficientnetv2-b1/block5f_expand_conv/Conv2D_bn_offset", "shape": [672], "dtype": "float32"}, {"name": "StatefulPartitionedCall/model/model016/efficientnetv2-b0/block6b_project_conv/Conv2D_weights", "shape": [1, 1, 1152, 192], "dtype": "float32"}, {"name": "StatefulPartitionedCall/model/model016/efficientnetv2-b0/block6b_project_conv/Conv2D_bn_offset", "shape": [192], "dtype": "float32"}, {"name": "StatefulPartitionedCall/model/model013/efficientnetv2-b3/block5e_dwconv2/depthwise_weights", "shape": [3, 3, 816, 1], "dtype": "float32"}, {"name": "StatefulPartitionedCall/model/model013/efficientnetv2-b3/block5e_dwconv2/depthwise_bn_offset", "shape": [816], "dtype": "float32"}, {"name": "StatefulPartitionedCall/model/model013/efficientnetv2-b3/block6i_dwconv2/depthwise_weights", "shape": [3, 3, 1392, 1], "dtype": "float32"}, {"name": "StatefulPartitionedCall/model/model016/efficientnetv2-b0/block6c_expand_conv/Conv2D_weights", "shape": [1, 1, 192, 1152], "dtype": "float32"}, {"name": "StatefulPartitionedCall/model/model013/efficientnetv2-b3/block6i_dwconv2/depthwise_bn_offset", "shape": [1392], "dtype": "float32"}, {"name": "StatefulPartitionedCall/model/model016/efficientnetv2-b0/block6c_expand_conv/Conv2D_bn_offset", "shape": [1152], "dtype": "float32"}, {"name": "StatefulPartitionedCall/model/model021/efficientnetv2-b1/block5f_dwconv2/depthwise_weights", "shape": [3, 3, 672, 1], "dtype": "float32"}, {"name": "StatefulPartitionedCall/model/model021/efficientnetv2-b1/block5f_dwconv2/depthwise_bn_offset", "shape": [672], "dtype": "float32"}, {"name": "StatefulPartitionedCall/model/model016/efficientnetv2-b0/block6c_dwconv2/depthwise_weights", "shape": [3, 3, 1152, 1], "dtype": "float32"}, {"name": "StatefulPartitionedCall/model/model016/efficientnetv2-b0/block6c_dwconv2/depthwise_bn_offset", "shape": [1152], "dtype": "float32"}, {"name": "StatefulPartitionedCall/model/model013/efficientnetv2-b3/block5e_project_conv/Conv2D_weights", "shape": [1, 1, 816, 136], "dtype": "float32"}, {"name": "StatefulPartitionedCall/model/model013/efficientnetv2-b3/block5e_project_conv/Conv2D_bn_offset", "shape": [136], "dtype": "float32"}, {"name": "StatefulPartitionedCall/model/model021/efficientnetv2-b1/block5f_project_conv/Conv2D_weights", "shape": [1, 1, 672, 112], "dtype": "float32"}, {"name": "StatefulPartitionedCall/model/model021/efficientnetv2-b1/block5f_project_conv/Conv2D_bn_offset", "shape": [112], "dtype": "float32"}, {"name": "StatefulPartitionedCall/model/model013/efficientnetv2-b3/block5f_expand_conv/Conv2D_weights", "shape": [1, 1, 136, 816], "dtype": "float32"}, {"name": "StatefulPartitionedCall/model/model013/efficientnetv2-b3/block5f_expand_conv/Conv2D_bn_offset", "shape": [816], "dtype": "float32"}, {"name": "StatefulPartitionedCall/model/model021/efficientnetv2-b1/block6a_expand_conv/Conv2D_weights", "shape": [1, 1, 112, 672], "dtype": "float32"}, {"name": "StatefulPartitionedCall/model/model021/efficientnetv2-b1/block6a_expand_conv/Conv2D_bn_offset", "shape": [672], "dtype": "float32"}, {"name": "StatefulPartitionedCall/model/model016/efficientnetv2-b0/block6c_project_conv/Conv2D_weights", "shape": [1, 1, 1152, 192], "dtype": "float32"}, {"name": "StatefulPartitionedCall/model/model013/efficientnetv2-b3/block6l_project_conv/Conv2D_bn_offset", "shape": [232], "dtype": "float32"}, {"name": "StatefulPartitionedCall/model/model016/efficientnetv2-b0/block6c_project_conv/Conv2D_bn_offset", "shape": [192], "dtype": "float32"}, {"name": "StatefulPartitionedCall/model/model013/efficientnetv2-b3/block5f_dwconv2/depthwise_weights", "shape": [3, 3, 816, 1], "dtype": "float32"}, {"name": "StatefulPartitionedCall/model/model013/efficientnetv2-b3/block5f_dwconv2/depthwise_bn_offset", "shape": [816], "dtype": "float32"}, {"name": "StatefulPartitionedCall/model/model016/efficientnetv2-b0/block6d_expand_conv/Conv2D_weights", "shape": [1, 1, 192, 1152], "dtype": "float32"}, {"name": "StatefulPartitionedCall/model/model016/efficientnetv2-b0/block6d_expand_conv/Conv2D_bn_offset", "shape": [1152], "dtype": "float32"}, {"name": "StatefulPartitionedCall/model/model021/efficientnetv2-b1/block6a_dwconv2/depthwise_weights", "shape": [3, 3, 672, 1], "dtype": "float32"}, {"name": "StatefulPartitionedCall/model/model021/efficientnetv2-b1/block6a_dwconv2/depthwise_bn_offset", "shape": [672], "dtype": "float32"}, {"name": "StatefulPartitionedCall/model/model016/efficientnetv2-b0/block6d_dwconv2/depthwise_weights", "shape": [3, 3, 1152, 1], "dtype": "float32"}, {"name": "StatefulPartitionedCall/model/model016/efficientnetv2-b0/block6d_dwconv2/depthwise_bn_offset", "shape": [1152], "dtype": "float32"}, {"name": "StatefulPartitionedCall/model/model013/efficientnetv2-b3/block5f_project_conv/Conv2D_weights", "shape": [1, 1, 816, 136], "dtype": "float32"}, {"name": "StatefulPartitionedCall/model/model013/efficientnetv2-b3/block6i_project_conv/Conv2D_weights", "shape": [1, 1, 1392, 232], "dtype": "float32"}, {"name": "StatefulPartitionedCall/model/model013/efficientnetv2-b3/block5f_project_conv/Conv2D_bn_offset", "shape": [136], "dtype": "float32"}, {"name": "StatefulPartitionedCall/model/model021/efficientnetv2-b1/block6a_project_conv/Conv2D_weights", "shape": [1, 1, 672, 192], "dtype": "float32"}, {"name": "StatefulPartitionedCall/model/model021/efficientnetv2-b1/block6a_project_conv/Conv2D_bn_offset", "shape": [192], "dtype": "float32"}, {"name": "StatefulPartitionedCall/model/model013/efficientnetv2-b3/block5g_expand_conv/Conv2D_weights", "shape": [1, 1, 136, 816], "dtype": "float32"}, {"name": "StatefulPartitionedCall/model/model013/efficientnetv2-b3/block6i_project_conv/Conv2D_bn_offset", "shape": [232], "dtype": "float32"}, {"name": "StatefulPartitionedCall/model/model013/efficientnetv2-b3/block5g_expand_conv/Conv2D_bn_offset", "shape": [816], "dtype": "float32"}, {"name": "StatefulPartitionedCall/model/model021/efficientnetv2-b1/block6b_expand_conv/Conv2D_weights", "shape": [1, 1, 192, 1152], "dtype": "float32"}, {"name": "StatefulPartitionedCall/model/model021/efficientnetv2-b1/block6b_expand_conv/Conv2D_bn_offset", "shape": [1152], "dtype": "float32"}, {"name": "StatefulPartitionedCall/model/model016/efficientnetv2-b0/block6d_project_conv/Conv2D_weights", "shape": [1, 1, 1152, 192], "dtype": "float32"}, {"name": "StatefulPartitionedCall/model/model016/efficientnetv2-b0/block6d_project_conv/Conv2D_bn_offset", "shape": [192], "dtype": "float32"}, {"name": "StatefulPartitionedCall/model/model013/efficientnetv2-b3/block5g_dwconv2/depthwise_weights", "shape": [3, 3, 816, 1], "dtype": "float32"}, {"name": "StatefulPartitionedCall/model/model013/efficientnetv2-b3/block5g_dwconv2/depthwise_bn_offset", "shape": [816], "dtype": "float32"}, {"name": "StatefulPartitionedCall/model/model013/efficientnetv2-b3/block6j_expand_conv/Conv2D_weights", "shape": [1, 1, 232, 1392], "dtype": "float32"}, {"name": "StatefulPartitionedCall/model/model013/efficientnetv2-b3/top_conv/Conv2D_weights", "shape": [1, 1, 232, 1536], "dtype": "float32"}, {"name": "StatefulPartitionedCall/model/model021/efficientnetv2-b1/block6b_dwconv2/depthwise_weights", "shape": [3, 3, 1152, 1], "dtype": "float32"}, {"name": "StatefulPartitionedCall/model/model021/efficientnetv2-b1/block6b_dwconv2/depthwise_bn_offset", "shape": [1152], "dtype": "float32"}, {"name": "StatefulPartitionedCall/model/model013/efficientnetv2-b3/block6j_expand_conv/Conv2D_bn_offset", "shape": [1392], "dtype": "float32"}, {"name": "StatefulPartitionedCall/model/model016/efficientnetv2-b0/block6e_expand_conv/Conv2D_weights", "shape": [1, 1, 192, 1152], "dtype": "float32"}, {"name": "StatefulPartitionedCall/model/model016/efficientnetv2-b0/block6e_expand_conv/Conv2D_bn_offset", "shape": [1152], "dtype": "float32"}, {"name": "StatefulPartitionedCall/model/model016/efficientnetv2-b0/block6e_dwconv2/depthwise_weights", "shape": [3, 3, 1152, 1], "dtype": "float32"}, {"name": "StatefulPartitionedCall/model/model016/efficientnetv2-b0/block6e_dwconv2/depthwise_bn_offset", "shape": [1152], "dtype": "float32"}, {"name": "StatefulPartitionedCall/model/model013/efficientnetv2-b3/block6j_dwconv2/depthwise_weights", "shape": [3, 3, 1392, 1], "dtype": "float32"}, {"name": "StatefulPartitionedCall/model/model013/efficientnetv2-b3/block5g_project_conv/Conv2D_weights", "shape": [1, 1, 816, 136], "dtype": "float32"}, {"name": "StatefulPartitionedCall/model/model013/efficientnetv2-b3/block5g_project_conv/Conv2D_bn_offset", "shape": [136], "dtype": "float32"}, {"name": "StatefulPartitionedCall/model/model021/efficientnetv2-b1/block6b_project_conv/Conv2D_weights", "shape": [1, 1, 1152, 192], "dtype": "float32"}, {"name": "StatefulPartitionedCall/model/model013/efficientnetv2-b3/block6j_dwconv2/depthwise_bn_offset", "shape": [1392], "dtype": "float32"}, {"name": "StatefulPartitionedCall/model/model021/efficientnetv2-b1/block6b_project_conv/Conv2D_bn_offset", "shape": [192], "dtype": "float32"}, {"name": "StatefulPartitionedCall/model/model013/efficientnetv2-b3/block6a_expand_conv/Conv2D_weights", "shape": [1, 1, 136, 816], "dtype": "float32"}, {"name": "StatefulPartitionedCall/model/model013/efficientnetv2-b3/block6a_expand_conv/Conv2D_bn_offset", "shape": [816], "dtype": "float32"}, {"name": "StatefulPartitionedCall/model/model021/efficientnetv2-b1/block6c_expand_conv/Conv2D_weights", "shape": [1, 1, 192, 1152], "dtype": "float32"}, {"name": "StatefulPartitionedCall/model/model021/efficientnetv2-b1/block6c_expand_conv/Conv2D_bn_offset", "shape": [1152], "dtype": "float32"}, {"name": "StatefulPartitionedCall/model/model016/efficientnetv2-b0/block6e_project_conv/Conv2D_weights", "shape": [1, 1, 1152, 192], "dtype": "float32"}, {"name": "StatefulPartitionedCall/model/model016/efficientnetv2-b0/block6e_project_conv/Conv2D_bn_offset", "shape": [192], "dtype": "float32"}, {"name": "StatefulPartitionedCall/model/model013/efficientnetv2-b3/block6a_dwconv2/depthwise_weights", "shape": [3, 3, 816, 1], "dtype": "float32"}, {"name": "StatefulPartitionedCall/model/model013/efficientnetv2-b3/block6a_dwconv2/depthwise_bn_offset", "shape": [816], "dtype": "float32"}, {"name": "StatefulPartitionedCall/model/model021/efficientnetv2-b1/block6c_dwconv2/depthwise_weights", "shape": [3, 3, 1152, 1], "dtype": "float32"}, {"name": "StatefulPartitionedCall/model/model021/efficientnetv2-b1/block6c_dwconv2/depthwise_bn_offset", "shape": [1152], "dtype": "float32"}, {"name": "StatefulPartitionedCall/model/model016/efficientnetv2-b0/block6f_expand_conv/Conv2D_weights", "shape": [1, 1, 192, 1152], "dtype": "float32"}, {"name": "StatefulPartitionedCall/model/model016/efficientnetv2-b0/block6f_expand_conv/Conv2D_bn_offset", "shape": [1152], "dtype": "float32"}, {"name": "StatefulPartitionedCall/model/model016/efficientnetv2-b0/block6f_dwconv2/depthwise_weights", "shape": [3, 3, 1152, 1], "dtype": "float32"}, {"name": "StatefulPartitionedCall/model/model016/efficientnetv2-b0/block6f_dwconv2/depthwise_bn_offset", "shape": [1152], "dtype": "float32"}, {"name": "StatefulPartitionedCall/model/model013/efficientnetv2-b3/block6a_project_conv/Conv2D_weights", "shape": [1, 1, 816, 232], "dtype": "float32"}, {"name": "StatefulPartitionedCall/model/model013/efficientnetv2-b3/block6a_project_conv/Conv2D_bn_offset", "shape": [232], "dtype": "float32"}, {"name": "StatefulPartitionedCall/model/model021/efficientnetv2-b1/block6c_project_conv/Conv2D_weights", "shape": [1, 1, 1152, 192], "dtype": "float32"}, {"name": "StatefulPartitionedCall/model/model021/efficientnetv2-b1/block6c_project_conv/Conv2D_bn_offset", "shape": [192], "dtype": "float32"}, {"name": "StatefulPartitionedCall/model/model013/efficientnetv2-b3/block6b_expand_conv/Conv2D_weights", "shape": [1, 1, 232, 1392], "dtype": "float32"}, {"name": "StatefulPartitionedCall/model/model013/efficientnetv2-b3/top_conv/Conv2D_bn_offset", "shape": [1536], "dtype": "float32"}, {"name": "StatefulPartitionedCall/model/model013/efficientnetv2-b3/block6b_expand_conv/Conv2D_bn_offset", "shape": [1392], "dtype": "float32"}, {"name": "StatefulPartitionedCall/model/model021/efficientnetv2-b1/block6d_expand_conv/Conv2D_weights", "shape": [1, 1, 192, 1152], "dtype": "float32"}, {"name": "StatefulPartitionedCall/model/model021/efficientnetv2-b1/block6d_expand_conv/Conv2D_bn_offset", "shape": [1152], "dtype": "float32"}, {"name": "StatefulPartitionedCall/model/model016/efficientnetv2-b0/block6f_project_conv/Conv2D_weights", "shape": [1, 1, 1152, 192], "dtype": "float32"}, {"name": "StatefulPartitionedCall/model/model016/efficientnetv2-b0/block6f_project_conv/Conv2D_bn_offset", "shape": [192], "dtype": "float32"}, {"name": "StatefulPartitionedCall/model/model013/efficientnetv2-b3/block6b_dwconv2/depthwise_weights", "shape": [3, 3, 1392, 1], "dtype": "float32"}, {"name": "StatefulPartitionedCall/model/model013/efficientnetv2-b3/block6b_dwconv2/depthwise_bn_offset", "shape": [1392], "dtype": "float32"}, {"name": "StatefulPartitionedCall/model/model013/efficientnetv2-b3/block6j_project_conv/Conv2D_weights", "shape": [1, 1, 1392, 232], "dtype": "float32"}, {"name": "StatefulPartitionedCall/model/model021/efficientnetv2-b1/block6d_dwconv2/depthwise_weights", "shape": [3, 3, 1152, 1], "dtype": "float32"}, {"name": "StatefulPartitionedCall/model/model021/efficientnetv2-b1/block6d_dwconv2/depthwise_bn_offset", "shape": [1152], "dtype": "float32"}, {"name": "StatefulPartitionedCall/model/model013/efficientnetv2-b3/block6j_project_conv/Conv2D_bn_offset", "shape": [232], "dtype": "float32"}, {"name": "StatefulPartitionedCall/model/model016/efficientnetv2-b0/block6g_expand_conv/Conv2D_weights", "shape": [1, 1, 192, 1152], "dtype": "float32"}, {"name": "StatefulPartitionedCall/model/model016/efficientnetv2-b0/block6g_expand_conv/Conv2D_bn_offset", "shape": [1152], "dtype": "float32"}, {"name": "StatefulPartitionedCall/model/model016/efficientnetv2-b0/block6g_dwconv2/depthwise_weights", "shape": [3, 3, 1152, 1], "dtype": "float32"}, {"name": "StatefulPartitionedCall/model/model016/efficientnetv2-b0/block6g_dwconv2/depthwise_bn_offset", "shape": [1152], "dtype": "float32"}, {"name": "StatefulPartitionedCall/model/model013/efficientnetv2-b3/block6k_expand_conv/Conv2D_weights", "shape": [1, 1, 232, 1392], "dtype": "float32"}, {"name": "StatefulPartitionedCall/model/model013/efficientnetv2-b3/block6b_project_conv/Conv2D_weights", "shape": [1, 1, 1392, 232], "dtype": "float32"}, {"name": "StatefulPartitionedCall/model/model013/efficientnetv2-b3/block6b_project_conv/Conv2D_bn_offset", "shape": [232], "dtype": "float32"}, {"name": "StatefulPartitionedCall/model/model021/efficientnetv2-b1/block6d_project_conv/Conv2D_weights", "shape": [1, 1, 1152, 192], "dtype": "float32"}, {"name": "StatefulPartitionedCall/model/model013/efficientnetv2-b3/block6k_expand_conv/Conv2D_bn_offset", "shape": [1392], "dtype": "float32"}, {"name": "StatefulPartitionedCall/model/model021/efficientnetv2-b1/block6d_project_conv/Conv2D_bn_offset", "shape": [192], "dtype": "float32"}, {"name": "StatefulPartitionedCall/model/model013/efficientnetv2-b3/block6c_expand_conv/Conv2D_weights", "shape": [1, 1, 232, 1392], "dtype": "float32"}, {"name": "StatefulPartitionedCall/model/model013/efficientnetv2-b3/block6c_expand_conv/Conv2D_bn_offset", "shape": [1392], "dtype": "float32"}, {"name": "StatefulPartitionedCall/model/model021/efficientnetv2-b1/block6e_expand_conv/Conv2D_weights", "shape": [1, 1, 192, 1152], "dtype": "float32"}, {"name": "StatefulPartitionedCall/model/model021/efficientnetv2-b1/block6e_expand_conv/Conv2D_bn_offset", "shape": [1152], "dtype": "float32"}, {"name": "StatefulPartitionedCall/model/model016/efficientnetv2-b0/block6g_project_conv/Conv2D_weights", "shape": [1, 1, 1152, 192], "dtype": "float32"}, {"name": "StatefulPartitionedCall/model/model016/efficientnetv2-b0/block6g_project_conv/Conv2D_bn_offset", "shape": [192], "dtype": "float32"}, {"name": "StatefulPartitionedCall/model/model013/efficientnetv2-b3/block6c_dwconv2/depthwise_weights", "shape": [3, 3, 1392, 1], "dtype": "float32"}, {"name": "StatefulPartitionedCall/model/model013/efficientnetv2-b3/block6c_dwconv2/depthwise_bn_offset", "shape": [1392], "dtype": "float32"}, {"name": "StatefulPartitionedCall/model/model013/efficientnetv2-b3/block6k_dwconv2/depthwise_weights", "shape": [3, 3, 1392, 1], "dtype": "float32"}, {"name": "StatefulPartitionedCall/model/model021/efficientnetv2-b1/block6e_dwconv2/depthwise_weights", "shape": [3, 3, 1152, 1], "dtype": "float32"}, {"name": "StatefulPartitionedCall/model/model021/efficientnetv2-b1/block6e_dwconv2/depthwise_bn_offset", "shape": [1152], "dtype": "float32"}, {"name": "StatefulPartitionedCall/model/model013/efficientnetv2-b3/block6k_dwconv2/depthwise_bn_offset", "shape": [1392], "dtype": "float32"}, {"name": "StatefulPartitionedCall/model/model016/efficientnetv2-b0/block6h_expand_conv/Conv2D_weights", "shape": [1, 1, 192, 1152], "dtype": "float32"}, {"name": "StatefulPartitionedCall/model/model016/efficientnetv2-b0/block6h_expand_conv/Conv2D_bn_offset", "shape": [1152], "dtype": "float32"}, {"name": "StatefulPartitionedCall/model/model016/efficientnetv2-b0/block6h_dwconv2/depthwise_weights", "shape": [3, 3, 1152, 1], "dtype": "float32"}, {"name": "StatefulPartitionedCall/model/model016/efficientnetv2-b0/block6h_dwconv2/depthwise_bn_offset", "shape": [1152], "dtype": "float32"}, {"name": "StatefulPartitionedCall/model/model013/efficientnetv2-b3/block6c_project_conv/Conv2D_weights", "shape": [1, 1, 1392, 232], "dtype": "float32"}, {"name": "StatefulPartitionedCall/model/model013/efficientnetv2-b3/block6c_project_conv/Conv2D_bn_offset", "shape": [232], "dtype": "float32"}, {"name": "StatefulPartitionedCall/model/model021/efficientnetv2-b1/block6e_project_conv/Conv2D_weights", "shape": [1, 1, 1152, 192], "dtype": "float32"}, {"name": "StatefulPartitionedCall/model/model021/efficientnetv2-b1/block6e_project_conv/Conv2D_bn_offset", "shape": [192], "dtype": "float32"}, {"name": "StatefulPartitionedCall/model/model013/efficientnetv2-b3/block6d_expand_conv/Conv2D_weights", "shape": [1, 1, 232, 1392], "dtype": "float32"}, {"name": "StatefulPartitionedCall/model/model013/efficientnetv2-b3/block6d_expand_conv/Conv2D_bn_offset", "shape": [1392], "dtype": "float32"}, {"name": "StatefulPartitionedCall/model/model021/efficientnetv2-b1/block6f_expand_conv/Conv2D_weights", "shape": [1, 1, 192, 1152], "dtype": "float32"}, {"name": "StatefulPartitionedCall/model/model021/efficientnetv2-b1/block6f_expand_conv/Conv2D_bn_offset", "shape": [1152], "dtype": "float32"}, {"name": "StatefulPartitionedCall/model/model016/efficientnetv2-b0/block6h_project_conv/Conv2D_weights", "shape": [1, 1, 1152, 192], "dtype": "float32"}, {"name": "StatefulPartitionedCall/model/model016/efficientnetv2-b0/block6h_project_conv/Conv2D_bn_offset", "shape": [192], "dtype": "float32"}, {"name": "StatefulPartitionedCall/model/model013/efficientnetv2-b3/block6d_dwconv2/depthwise_weights", "shape": [3, 3, 1392, 1], "dtype": "float32"}, {"name": "StatefulPartitionedCall/model/model013/efficientnetv2-b3/block6d_dwconv2/depthwise_bn_offset", "shape": [1392], "dtype": "float32"}, {"name": "StatefulPartitionedCall/model/model021/efficientnetv2-b1/block6f_dwconv2/depthwise_weights", "shape": [3, 3, 1152, 1], "dtype": "float32"}, {"name": "StatefulPartitionedCall/model/model021/efficientnetv2-b1/block6f_dwconv2/depthwise_bn_offset", "shape": [1152], "dtype": "float32"}, {"name": "StatefulPartitionedCall/model/model016/efficientnetv2-b0/top_conv/Conv2D_weights", "shape": [1, 1, 192, 1280], "dtype": "float32"}, {"name": "StatefulPartitionedCall/model/model016/efficientnetv2-b0/top_conv/Conv2D_bn_offset", "shape": [1280], "dtype": "float32"}, {"name": "StatefulPartitionedCall/model/model013/efficientnetv2-b3/block6d_project_conv/Conv2D_weights", "shape": [1, 1, 1392, 232], "dtype": "float32"}, {"name": "StatefulPartitionedCall/model/model013/efficientnetv2-b3/block6d_project_conv/Conv2D_bn_offset", "shape": [232], "dtype": "float32"}, {"name": "StatefulPartitionedCall/model/model021/efficientnetv2-b1/block6f_project_conv/Conv2D_weights", "shape": [1, 1, 1152, 192], "dtype": "float32"}, {"name": "StatefulPartitionedCall/model/model013/efficientnetv2-b3/block6k_project_conv/Conv2D_weights", "shape": [1, 1, 1392, 232], "dtype": "float32"}, {"name": "StatefulPartitionedCall/model/model021/efficientnetv2-b1/block6f_project_conv/Conv2D_bn_offset", "shape": [192], "dtype": "float32"}, {"name": "StatefulPartitionedCall/model/model013/efficientnetv2-b3/block6e_expand_conv/Conv2D_weights", "shape": [1, 1, 232, 1392], "dtype": "float32"}, {"name": "StatefulPartitionedCall/model/model013/efficientnetv2-b3/block6e_expand_conv/Conv2D_bn_offset", "shape": [1392], "dtype": "float32"}, {"name": "StatefulPartitionedCall/model/model021/efficientnetv2-b1/block6g_expand_conv/Conv2D_weights", "shape": [1, 1, 192, 1152], "dtype": "float32"}, {"name": "StatefulPartitionedCall/model/model013/efficientnetv2-b3/block6k_project_conv/Conv2D_bn_offset", "shape": [232], "dtype": "float32"}, {"name": "StatefulPartitionedCall/model/model021/efficientnetv2-b1/block6g_expand_conv/Conv2D_bn_offset", "shape": [1152], "dtype": "float32"}, {"name": "StatefulPartitionedCall/model/model013/efficientnetv2-b3/block6e_dwconv2/depthwise_weights", "shape": [3, 3, 1392, 1], "dtype": "float32"}, {"name": "StatefulPartitionedCall/model/model013/efficientnetv2-b3/block6e_dwconv2/depthwise_bn_offset", "shape": [1392], "dtype": "float32"}, {"name": "StatefulPartitionedCall/model/model021/efficientnetv2-b1/block6g_dwconv2/depthwise_weights", "shape": [3, 3, 1152, 1], "dtype": "float32"}, {"name": "StatefulPartitionedCall/model/model021/efficientnetv2-b1/block6g_dwconv2/depthwise_bn_offset", "shape": [1152], "dtype": "float32"}, {"name": "StatefulPartitionedCall/model/model013/efficientnetv2-b3/block6l_expand_conv/Conv2D_weights", "shape": [1, 1, 232, 1392], "dtype": "float32"}, {"name": "StatefulPartitionedCall/model/model013/efficientnetv2-b3/block6e_project_conv/Conv2D_weights", "shape": [1, 1, 1392, 232], "dtype": "float32"}, {"name": "StatefulPartitionedCall/model/model013/efficientnetv2-b3/block6l_expand_conv/Conv2D_bn_offset", "shape": [1392], "dtype": "float32"}, {"name": "StatefulPartitionedCall/model/model013/efficientnetv2-b3/block6e_project_conv/Conv2D_bn_offset", "shape": [232], "dtype": "float32"}, {"name": "StatefulPartitionedCall/model/model021/efficientnetv2-b1/block6g_project_conv/Conv2D_weights", "shape": [1, 1, 1152, 192], "dtype": "float32"}, {"name": "StatefulPartitionedCall/model/model021/efficientnetv2-b1/block6g_project_conv/Conv2D_bn_offset", "shape": [192], "dtype": "float32"}, {"name": "StatefulPartitionedCall/model/model013/efficientnetv2-b3/block6f_expand_conv/Conv2D_weights", "shape": [1, 1, 232, 1392], "dtype": "float32"}, {"name": "StatefulPartitionedCall/model/model013/efficientnetv2-b3/block6f_expand_conv/Conv2D_bn_offset", "shape": [1392], "dtype": "float32"}, {"name": "StatefulPartitionedCall/model/model021/efficientnetv2-b1/block6h_expand_conv/Conv2D_weights", "shape": [1, 1, 192, 1152], "dtype": "float32"}, {"name": "StatefulPartitionedCall/model/model021/efficientnetv2-b1/block6h_expand_conv/Conv2D_bn_offset", "shape": [1152], "dtype": "float32"}]}]}